models/PPO_Continuous_drones2d-v0_994500_1563173030.pth (torch_old, 173284 bytes, 15 tensors)

lstm1_a.weight_ih_l0 f4 [252, 3]
0	0xbe0c348b	-0.13691919
1	0x3e4f8be7	0.20268212
2	0xbc6edaee	-0.014578564
3	0xbeafff18	-0.3437431
4	0xbd13ccfb	-0.036084156
5	0xbdb40068	-0.0878914
6	0xbe36f4d5	-0.17866834
7	0xbe904fea	-0.2818597
8	0xbcc5360a	-0.02407362
9	0x3dd1d530	0.102457404
10	0xbee965de	-0.4558553
11	0x3c7a40a4	0.015274201
12	0x3e38343e	0.17988679
13	0xbe8f390f	-0.2797322
14	0xbdd77624	-0.105205804
15	0xbe37d5b2	-0.17952612
16	0x3e955742	0.29168135
17	0xbc52e329	-0.012871542
18	0xbe5c814a	-0.21533695
19	0x3d49e3ae	0.049289398
20	0x3daedcd6	0.08538215
21	0x3d0308d3	0.031990837
22	0x3ca99241	0.020699622
23	0xbd41ca90	-0.04731232
24	0xbb28f6dc	-0.0025781905
25	0xbebd9ac0	-0.37032127
26	0x3d42862b	0.047491234
27	0xbe05e527	-0.13075696
28	0xbe6dfc4e	-0.23240778
29	0xbce1ff9c	-0.027587704
30	0xbea00ab8	-0.31258178
31	0xbae33b9c	-0.001733649
32	0xbe22337c	-0.15839952
33	0x3cefc922	0.029270712
34	0x3e7b9a28	0.24570525
35	0xbd657c1f	-0.056026574
36	0xbdd13354	-0.10214868
37	0xbd86e356	-0.0658633
38	0xbdfc1835	-0.123093046
39	0x3e5a4237	0.21314321
40	0xbde949dd	-0.113910414
41	0x3cf2444a	0.029573578
42	0xbe282be8	-0.16422999
43	0x3c5a803a	0.013336236
44	0xbe43fd6e	-0.19139645
45	0xbe468eee	-0.19390461
46	0xbe827d3d	-0.25486174
47	0xbd09112f	-0.033463653
48	0xbeb06178	-0.34449363
49	0x3c7c81d5	0.015411814
50	0xbe127737	-0.1430329
51	0x3be787db	0.007065756
52	0xbde26ccb	-0.11055907
53	0xbde7463e	-0.112926945
54	0x3e1a6d0c	0.1508066
55	0xbe906cb5	-0.28207937
56	0x3e69ce7e	0.22832677
57	0xbea7a5b6	-0.32743615
58	0x3b2e86c1	0.0026630613
59	0xbdf79dc6	-0.1209064
60	0xbe386c19	-0.18009986
61	0x3e82e81f	0.2556772
62	0x3c252003	0.010078433
63	0xbe282c71	-0.16423203
64	0xbe79b63f	-0.24385928
65	0x3de4674b	0.11152514
66	0x3e8e99a8	0.27851605
67	0x3e068e5a	0.1314024
68	0xbc9012ed	-0.01758715
69	0xbd2dae16	-0.04240235
70	0xbe8ba5e7	-0.2727501
71	0x3da53ba6	0.08068018
72	0x3dc02b6f	0.09383284
73	0xbdf6529d	-0.12027476
74	0xbc48664a	-0.012231419
75	0xbe18f755	-0.149381
76	0x3e2aaa1f	0.16666459
77	0xbd4324fb	-0.04764269
78	0x3e4b790e	0.19870397
79	0x3d80cc22	0.06288935
80	0xbc209ca2	-0.009802969
81	0x3df46097	0.119324856
82	0xbef89980	-0.4855461
83	0x3dc009fa	0.09376903
84	0xbe16c50b	-0.14723603
85	0x3e602c72	0.21891955
86	0x3add00f1	0.0016861242
87	0xbdde2a02	-0.10847856
88	0x3e2aecd2	0.16691902
89	0x3d1a0583	0.037602913
90	0xbe2c0444	-0.16798502
91	0xbedfc4b9	-0.43704775
92	0x3d55619f	0.05209505
93	0xbe47c4ed	-0.19508715
94	0xbdba6f0a	-0.0910321
95	0xbae6ffea	-0.0017623876
96	0xbe42c8b1	-0.1902187
97	0x3ebb79b5	0.36616293
98	0x3d79614c	0.060883805
99	0x3e35bb8e	0.17747328
100	0xbeca2a48	-0.39485383
101	0x3e9fb37c	0.31191623
102	0xbdd30630	-0.103039145
103	0xbe9c2789	-0.30498913
104	0xbd1bac8f	-0.03800636
105	0xba42e0be	-0.0007434002
106	0x3e904f95	0.28185716
107	0xbda78515	-0.0817968
108	0x3c6f7194	0.0146144815
109	0x3d943e52	0.07238449
110	0x3d9e0c0c	0.077171415
111	0xbe4000e9	-0.18750347
112	0xbca54266	-0.020173263
113	0xbda2358a	-0.07920368
114	0x3e0dced8	0.13848436
115	0x3dd4d8f3	0.10392942
116	0x3d75b9e8	0.059991747
117	0x3e42c7bb	0.19021504
118	0xbdf629ea	-0.12019713
119	0xbc91191e	-0.017712172
120	0x3d413131	0.047166053
121	0x3e393e03	0.18090062
122	0xbe13ccbe	-0.14433572
123	0xbe272d66	-0.16325912
124	0x3e96c093	0.29443797
125	0xbc2661a6	-0.010155117
126	0xbeadc236	-0.33937234
127	0x3cde9b87	0.02717377
128	0xbe21f8ca	-0.15817562
129	0x3e70205a	0.23449841
130	0x3e30d93f	0.17270373
131	0x3bf8000d	0.0075683654
132	0xbe5369d3	-0.20645837
133	0x3e5fd073	0.21856861
134	0x3c215ef8	0.0098493025
135	0xbdc833fc	-0.0977554
136	0xbe311412	-0.17292812
137	0xbe2027c4	-0.1564017
138	0xbe4596ee	-0.19295856
139	0x3df69d94	0.120417744
140	0xbd23a4d3	-0.03995211
141	0xbd4bcfae	-0.049758606
142	0x3ddc116d	0.10745511
143	0x3e1237aa	0.14279047
144	0xbe551f08	-0.20812619
145	0xbe1ccea0	-0.15313196
146	0x3e309ae0	0.1724658
147	0xbe58bcfe	-0.21165845
148	0xbe56cf8f	-0.20977615
149	0x3db6e971	0.08931244
150	0x3ea49653	0.32145938
151	0x3e9a84d1	0.30179456
152	0x3e6c6778	0.23086345
153	0xbe1cab6a	-0.15299764
154	0xbe738f4f	-0.23785137
155	0xbdb4a775	-0.088210024
156	0xbea3f047	-0.32019255
157	0x3d2900dd	0.04126059
158	0xbd66eb84	-0.05637695
159	0xbe3d0326	-0.18458232
160	0xbd165fe7	-0.036712553
161	0xbdf72328	-0.120672524
162	0xbe297588	-0.16548741
163	0x3e5554ae	0.20833084
164	0x3c960b46	0.018315922
165	0xbe3fee59	-0.18743266
166	0xbe8ca709	-0.27471188
167	0xbd3eeb33	-0.046611022
168	0xbe1b849d	-0.15187307
169	0xbd7d3f15	-0.061827738
170	0xbe21e20b	-0.15808885
171	0xbe083f82	-0.13305476
172	0x3e08e847	0.13369857
173	0xbe52d2b7	-0.20588194
174	0x3df38f3c	0.11892554
175	0xbceece3d	-0.029151076
176	0x3d8aeb83	0.067832015
177	0xbda53517	-0.08066767
178	0xbeb965df	-0.36210534
179	0xbe1260c4	-0.14294726
180	0x3e4fec8b	0.20305078
181	0xbe08c2d0	-0.13355565
182	0x3d539071	0.051651422
183	0xbe14302e	-0.14471504
184	0xbe9677b1	-0.29388192
185	0x3c9d7eb6	0.01922546
186	0x3e621e3d	0.22081847
187	0x3eda0ebf	0.42589375
188	0x3ec90f9d	0.39269724
189	0xbd6e2524	-0.05814089
190	0x3d140a76	0.03614279
191	0x3d292231	0.041292373
192	0x3e99531b	0.29946217
193	0xbd44212a	-0.04788319
194	0x3d72d850	0.059288323
195	0xbb7aeba4	-0.0038287425
196	0x3e0ee073	0.13952808
197	0xbc568e36	-0.013095429
198	0xbcfb7210	-0.030694038
199	0x3d0ca397	0.0343357
200	0xbe41c484	-0.18922621
201	0x3e0b526a	0.13605657
202	0xbdc8a945	-0.097979106
203	0x3db7936a	0.08963664
204	0x3e0617fc	0.13095087
205	0x3ca2c4bd	0.019869203
206	0x3e41d6a0	0.18929529
207	0xbdbdefc4	-0.09274247
208	0xbe92210f	-0.28540847
209	0xbdac6603	-0.08417895
210	0xbd944d39	-0.072412916
211	0x3e32c138	0.1745652
212	0xbde046f2	-0.10951032
213	0x3b44cdbc	0.0030029854
214	0x3e4b8023	0.19873099
215	0xbd041ebe	-0.03225588
216	0xbddfd218	-0.10928744
217	0xbe3bbaf1	-0.18333031
218	0xbe0f4d3a	-0.13994303
219	0x3e8acb73	0.27108344
220	0x3c9cd56f	0.019144742
221	0x3e6db274	0.23212606
222	0x3dab09ba	0.083514646
223	0x3b753a87	0.0037418918
224	0xbd55ad61	-0.0521673
225	0x3ddd3ca0	0.10802579
226	0xbd5c48c9	-0.05378035
227	0xbd8c2ab3	-0.06844082
228	0xbdf4528e	-0.119298086
229	0x3dca9c82	0.09893133
230	0x3d85bf84	0.06530669
231	0xbd1c2e72	-0.03813023
232	0x3b99f468	0.004698325
233	0x3cfb7b45	0.030698428
234	0x3db852d0	0.0900017
235	0xbd7c2b57	-0.06156477
236	0xbccf4f2a	-0.025306303
237	0x3e96349c	0.29337013
238	0xbdee6707	-0.11640745
239	0x3dba54f8	0.09098238
240	0xbe3a8e27	-0.1821829
241	0xbb1817cd	-0.0023207546
242	0xbe4db440	-0.20088291
243	0xbde77519	-0.113016315
244	0xbe39f02e	-0.18158028
245	0xbdcd59e2	-0.100269094
246	0x3d9abf3d	0.07556007
247	0xbd795feb	-0.06088249
248	0x3e3fa888	0.18716633
249	0x3d1eeb3a	0.03879855
250	0xbd88d4b6	-0.066811964
251	0x3c394187	0.011307127
252	0x3e1e31a4	0.15448624
253	0x3ddfae59	0.10921926
254	0x3db75fce	0.0895382
255	0x3d9a6553	0.07538857

lstm1_a.weight_hh_l0 f4 [252, 63]
0	0x3da724a5	0.08161286
1	0x3e8d18a7	0.2755787
2	0xbdcbe220	-0.09955239
3	0x3d73b745	0.05950095
4	0xbe0f4da0	-0.13994455
5	0xbe196dbc	-0.14983267
6	0x3e486ad2	0.19571999
7	0x3c069ab2	0.008215593
8	0xbe1dd5e5	-0.15413626
9	0x3dfd6736	0.123732015
10	0xbeb4a87d	-0.35284796
11	0x3d5c8dd4	0.053846195
12	0xbca739f7	-0.020413382
13	0xbd393419	-0.0452157
14	0xbda87f48	-0.08227402
15	0xbe0ec6d5	-0.13943036
16	0x3e952153	0.29126987
17	0x3d09e01b	0.03366099
18	0x3e2d5613	0.16927366
19	0xbe9b0842	-0.30279738
20	0x3c077526	0.008267676
21	0xb96d3402	-0.00022621456
22	0xbdb88f27	-0.09011679
23	0x3e28aaaf	0.1647136
24	0x3d87135c	0.065954894
25	0xbde42693	-0.1114017
26	0xbdb23e9c	-0.08703348
27	0x3cfa2c9b	0.030538848
28	0x3cc62c1a	0.024190951
29	0xbdb0ef08	-0.086393416
30	0xbc0b5ca0	-0.00850597
31	0x3cdd4603	0.027010923
32	0x3d86d8a0	0.06584287
33	0xbe7d66a1	-0.24746181
34	0xb9c7639c	-0.00038030453
35	0xbddd8ebf	-0.10818242
36	0xbc2e3418	-0.010632537
37	0x3d199323	0.037493836
38	0xbd30ae97	-0.04313525
39	0xba0c3435	-0.00053483556
40	0x3e3ba8ba	0.18326083
41	0xbd1fa891	-0.038979117
42	0x3e82720f	0.25477645
43	0xbe0036c8	-0.12520897
44	0x3e354a7e	0.17704198
45	0xbd268296	-0.04065188
46	0xbde59acd	-0.112111665
47	0x3befc23a	0.007316855
48	0xbd3ed6cc	-0.046591565
49	0x3e029b0f	0.12754463
50	0xbe2179b0	-0.15769076
51	0xbce6a0ec	-0.028152905
52	0x3ea42503	0.32059488
53	0xbba08f24	-0.004899876
54	0xbd453059	-0.04814181
55	0x3d7fe09c	0.062470064
56	0x3e0d8aa2	0.13822415
57	0xbe0caf6a	-0.1373879
58	0xbd6a89e9	-0.057260428
59	0xbbb3ce3e	-0.0054872325
60	0xbc1fb78b	-0.00974835
61	0xbe2e59ae	-0.17026398
62	0x3db266ae	0.08710991
63	0xbd46e2fc	-0.048556313
64	0x3e74523a	0.23859492
65	0x3c661da4	0.014045153
66	0x3e3c1bcd	0.1836998
67	0x3ccb32dd	0.024804527
68	0xbd81c455	-0.063362755
69	0x3e4e0d46	0.20122251
70	0xbd5043a6	-0.050845765
71	0xbc398aab	-0.011324565
72	0x3b3279df	0.0027233285
73	0xbd885389	-0.06656558
74	0x3d64fb25	0.055903573
75	0x3d864287	0.06555658
76	0xbd7d585a	-0.061851837
77	0xbd031733	-0.032004546
78	0x3d28b83e	0.041191332
79	0x3e6bdc54	0.23033267
80	0xbdaad427	-0.08341246
81	0x3dd4959c	0.10380098
82	0xbdc9a8b2	-0.09846629
83	0xbdc0054b	-0.093760096
84	0x3d81be1b	0.06335088
85	0x3e0f59a0	0.13999033
86	0xbb0a9a52	-0.002114911
87	0xbc9dc066	-0.019256782
88	0x3d25b741	0.040457968
89	0x3c77342e	0.015088124
90	0x3cc899b1	0.024487348
91	0x3e0e6da9	0.1390902
92	0xbe2dc599	-0.16969909
93	0xbe080a10	-0.13285089
94	0x3d8b43e5	0.06800059
95	0x3d42151a	0.047383405
96	0xbdbe6402	-0.09296419
97	0x3dafe749	0.08589036
98	0x3d9ffa01	0.07811356
99	0x3c866087	0.01640345
100	0xbcb76cfd	-0.022390837
101	0x3d22d560	0.03975427
102	0xbcdf593d	-0.027264232
103	0xbcec028f	-0.028809814
104	0xbd909497	-0.07059591
105	0x3e71757e	0.23579976
106	0xbdbb6254	-0.09149614
107	0x3e38f276	0.18061242
108	0xbd7a8343	-0.061160337
109	0x3cc525ea	0.02406593
110	0x3d682d59	0.056683872
111	0xbe0e241b	-0.1388096
112	0xbd76353c	-0.060109362
113	0xbd5a7d5c	-0.05334221
114	0xbd8b0d5e	-0.06789659
115	0x3e5fe993	0.21866445
116	0x3cdce6ef	0.026965586
117	0x3d81b20d	0.063327886
118	0x3d339d7a	0.043851353
119	0xbdc0e3bb	-0.09418436
120	0x3c997532	0.01873264
121	0xbd961572	-0.07328309
122	0xbcea0d3e	-0.028570767
123	0x3e0c854f	0.13722728
124	0x3de5d687	0.112225585
125	0x3e1e9d8a	0.15489784
126	0xbdd12730	-0.102125525
127	0xbe3f46b1	-0.1867931
128	0x3e31289e	0.1730065
129	0x3d6407f6	0.055671655
130	0x3dda3dda	0.106563285
131	0x3da94976	0.08265965
132	0xbec30482	-0.38089377
133	0xbcaa82d9	-0.020814346
134	0x3c866fc9	0.016410725
135	0x3dffe969	0.12495691
136	0x3e3b11e2	0.1826854
137	0xbd48076b	-0.0488352
138	0xbcb2060b	-0.021731397
139	0x3d6af41d	0.05736171
140	0xbd4d6818	-0.0501481
141	0xbca13b98	-0.019681737
142	0xbe7833ed	-0.24238558
143	0xbbfc444e	-0.0076985722
144	0xbc7e16b2	-0.015508341
145	0x3df041f1	0.11731327
146	0x3e2c87c7	0.1684867
147	0x3dd47f76	0.10375874
148	0x3c037ec9	0.008025833
149	0x3dd8ebc0	0.10591841
150	0xbd346693	-0.044043135
151	0x3ab91005	0.0014119154
152	0x3d45118c	0.048112437
153	0xbbb5d9e4	-0.005549656
154	0xbe5239dc	-0.20529884
155	0x3e3b867e	0.18313023
156	0xbdcbd759	-0.09953184
157	0xbd22b916	-0.039727293
158	0x3e73ab7b	0.23795883
159	0x3df8664c	0.121288866
160	0x3e10bb94	0.14134055
161	0x3d488449	0.048954282
162	0x3e0bf40d	0.13667317
163	0xbc9ebfa1	-0.019378485
164	0xbdae6487	-0.08515268
165	0x3c347689	0.011014589
166	0x3cb97413	0.022638356
167	0x3d787c34	0.060665324
168	0xbebce91c	-0.36896598
169	0x3d364748	0.044501573
170	0xbe295496	-0.16536173
171	0x3d830c5c	0.06398842
172	0x3e170e28	0.14751494
173	0xbdc98c66	-0.09841232
174	0xba72b81c	-0.0009259002
175	0xbc683833	-0.014173555
176	0x3cce8df5	0.025214175
177	0xbdf4cbbc	-0.11952922
178	0xbe0420e2	-0.12903169
179	0x3d2ec288	0.04266599
180	0xbb561703	-0.0032667525
181	0xbe33cd74	-0.17558843
182	0x3e582469	0.2110764
183	0x3d820ed9	0.06350488
184	0xbb47aaf9	-0.0030466898
185	0x3dce19ef	0.1006354
186	0x3d37e462	0.044895537
187	0x3ca69182	0.020333055
188	0xbd0aff36	-0.033934794
189	0x3d419447	0.04726055
190	0x3d8d664f	0.069042794
191	0x3d8fe195	0.07025448
192	0x3cffd41c	0.031229071
193	0xbd28b283	-0.041185867
194	0xbd0e8206	-0.03479197
195	0xbd37219b	-0.044709783
196	0x3c423a49	0.011854717
197	0xbc8d370a	-0.017238159
198	0xbd1c8aab	-0.03821818
199	0x3deb7c86	0.1149836
200	0x3da3d816	0.080001995
201	0xbcc08c51	-0.023504408
202	0xbdfe6828	-0.1242221
203	0x3d174288	0.036928684
204	0xbdb1687d	-0.08662508
205	0xbdc821f3	-0.097721
206	0xbcf2b3be	-0.029626723
207	0xbd23ddcd	-0.040006448
208	0xbde2994e	-0.11064397
209	0xbc2f11a5	-0.010685359
210	0xbe242c55	-0.16032536
211	0xbd16b992	-0.036798067
212	0xbdc9fdaa	-0.09862836
213	0xbd8e6423	-0.06952693
214	0xbe0b60c1	-0.13611127
215	0xbd3833be	-0.04497122
216	0xbd1b8654	-0.037969902
217	0x3e2a64a7	0.16639958
218	0x3ce1aa04	0.02754689
219	0xbcf72040	-0.030166745
220	0x3e256846	0.16153058
221	0xbd1ac4e5	-0.03778543
222	0x3db4bec2	0.08825447
223	0xbc2bfa8f	-0.01049675
224	0x3de310d3	0.11087193
225	0xbc461dc8	-0.012092061
226	0x3dc1acf8	0.09456819
227	0x3d8523eb	0.065009914
228	0xbdca8666	-0.09888916
229	0x3d771845	0.06032588
230	0xbd8a30a5	-0.067475595
231	0x3c6e2f35	0.014537622
232	0xbdeeebd5	-0.11666075
233	0xbb958562	-0.0045630196
234	0xbdd7cb9e	-0.10536884
235	0xbcaebb93	-0.021329677
236	0x3d632e14	0.055463865
237	0xbd5ddea3	-0.0541674
238	0x3e2da604	0.16957861
239	0x3ccfdd31	0.025374027
240	0xbc8f120f	-0.017464666
241	0x3ddd1eb2	0.1079687
242	0x3d8c2c94	0.0684444
243	0x3db9a241	0.090641506
244	0x3e1c80b1	0.15283467
245	0x3d4b5fa6	0.049651764
246	0x3df16e72	0.11788644
247	0x3d87153d	0.06595848
248	0xbda3cbfb	-0.079978906
249	0xbd5c7dc8	-0.05383089
250	0xbdfdfd94	-0.12401882
251	0x3e0820a6	0.13293704
252	0x3cb262a3	0.02177555
253	0x3e91115e	0.28333563
254	0x3d9450c1	0.07241965
255	0x3db8e48c	0.09027967

lstm1_a.bias_ih_l0 f4 [252]
0	0xbc47cbbf	-0.012194573
1	0x3e41635b	0.18885557
2	0x3e0a4776	0.13503823
3	0xbd046a3f	-0.032327887
4	0x3e1a3f70	0.15063262
5	0xbdb3f126	-0.0878623
6	0x3e3d8b23	0.18510108
7	0x3df90336	0.121588156
8	0x3e2f2b4a	0.17106357
9	0xbe749577	-0.23885141
10	0x3e3dc465	0.1853195
11	0x3d2b8cb8	0.041882247
12	0x3db56678	0.08857435
13	0x3d72e502	0.05930043
14	0xbd34671d	-0.04404365
15	0x3d57135c	0.052508697
16	0x3e28a42e	0.1646888
17	0xbd344881	-0.044014458
18	0x3e653dfa	0.22386923
19	0x3e125270	0.1428926
20	0x3ce80b8c	0.028325818
21	0xbd5d260a	-0.053991355
22	0x3e09eac5	0.13468464
23	0xbe130c1f	-0.14360093
24	0x3dfd99d4	0.12382856
25	0x3ccccb1e	0.024999198
26	0x3d5f21cf	0.0544756
27	0x3d67ac17	0.056560602
28	0x3e50ee05	0.20403297
29	0x3e221031	0.15826489
30	0x3d5176b5	0.0511386
31	0x3dbc0bd5	0.09181944
32	0x3c5020a8	0.012703098
33	0x3e652998	0.22379148
34	0xbe207f8c	-0.15673655
35	0xbded96de	-0.11601041
36	0x3e3719d6	0.1788095
37	0xbe8587f6	-0.26080292
38	0x3e37d7b5	0.1795338
39	0x3e4bbca6	0.19896182
40	0x3c3f601e	0.011680631
41	0xbdb7feed	-0.0898417
42	0x3eb048c0	0.34430504
43	0x3cf78409	0.030214326
44	0x3ce39c18	0.027784392
45	0xbe14a8b0	-0.14517474
46	0x3d973dba	0.0738482
47	0x3d4802b7	0.048830714
48	0x3e409ae8	0.18809092
49	0x3da9dea0	0.082944155
50	0x3e28851a	0.16457024
51	0xbcda8415	-0.02667431
52	0x3daf7d4f	0.085688226
53	0x3d39f659	0.04540095
54	0x3db3c190	0.087771535
55	0xbd45dce6	-0.04830637
56	0xbe07aa9b	-0.13248675
57	0xbe19b907	-0.15011989
58	0x3e2341fd	0.15943141
59	0x3dd4347d	0.10361574
60	0x3e3c5dab	0.18395106
61	0x3ddf7a37	0.109119825
62	0x3e31659c	0.17323917
63	0x3c64bbfc	0.013960835
64	0x3d5a83bb	0.053348284
65	0xbd419928	-0.0472652
66	0xbda58ed0	-0.0808388
67	0xbcada832	-0.021198366
68	0x3cba0478	0.022707209
69	0xbe0aac5f	-0.13542317
70	0xbd83ec19	-0.064415164
71	0xbe18275e	-0.14858767
72	0x3cb10f4b	0.021613738
73	0x3c7e5487	0.015523083
74	0x3c9a81a7	0.018860651
75	0x3cbab758	0.022792503
76	0xbd56dc57	-0.052456226
77	0xbd9f5434	-0.07779732
78	0xbdcf10e7	-0.10110646
79	0x3d8445e5	0.06458644
80	0xbe2917ce	-0.16512987
81	0xbe2523e4	-0.16126972
82	0x3c5fb3a5	0.01365367
83	0xbcbe0ff1	-0.02320096
84	0x3d4514c7	0.048115518
85	0xbd533b51	-0.05157024
86	0xbe809b57	-0.25118515
87	0xbd916e15	-0.071010746
88	0x3d908808	0.07057196
89	0x3d0b69ea	0.034036554
90	0x3dbdd4a5	0.09269074
91	0x3d8c2acf	0.068441026
92	0x3d37b2f3	0.044848394
93	0x3de60005	0.112304725
94	0x3dd773c5	0.10520128
95	0x3c365ec5	0.011130993
96	0x3d25a0c2	0.040436514
97	0x3b567f98	0.003272986
98	0xbe354d45	-0.17705257
99	0x3ce4bdbf	0.02792251
100	0xbdd50bf8	-0.104026735
101	0xbd56561f	-0.052328225
102	0x3d1329d2	0.035928555
103	0x3e0eca8d	0.13944454
104	0xbd8a5270	-0.06754005
105	0x3e6e4360	0.23267889
106	0xbdda6cfd	-0.10665319
107	0x3e0225e8	0.12709773
108	0xbddc71c0	-0.107638836
109	0x3d795f22	0.06088174
110	0xbc864c17	-0.016393704
111	0xbd1bc9df	-0.038034316
112	0x3e00239a	0.12513581
113	0xbce03b6f	-0.02737209
114	0x3dafc1e5	0.08581904
115	0x3e053374	0.13007909
116	0x3e5bc9a7	0.21463643
117	0x3c53b3d1	0.01292129
118	0x3e0477f7	0.12936388
119	0x3dbb9ac4	0.091603786
120	0x3d855089	0.065095015
121	0xbd056cea	-0.03257457
122	0x3d736681	0.059423927
123	0xbe67da2c	-0.2264182
124	0xbe0f5ae5	-0.13999517
125	0xbd6ced2b	-0.05784337
126	0x3c0c7908	0.008573778
127	0x3ce02188	0.027359739
128	0x3e1f1f3e	0.15539262
129	0x3d92b032	0.07162513
130	0xbdb419ee	-0.08794008
131	0x3cfc8a6a	0.03082772
132	0xbd49c6ee	-0.04926198
133	0xbbc37743	-0.005965145
134	0xbe2f1d3d	-0.17100997
135	0xbc645e16	-0.013938447
136	0x3d910c00	0.07082367
137	0xbb2a7283	-0.0026008196
138	0xbdbbf05e	-0.09176706
139	0xbe426c4f	-0.18986629
140	0x3da64003	0.08117678
141	0x3e115df5	0.14195998
142	0xbd14e386	-0.036349796
143	0xba8e80c4	-0.0010872115
144	0xbc72b027	-0.014812506
145	0x3daef12a	0.08542092
146	0x3e902ba2	0.2815829
147	0xbdaffdf6	-0.08593361
148	0x3d18926d	0.037249018
149	0xbdfcb2b8	-0.123387754
150	0x3de552d2	0.11197437
151	0x3d5c5437	0.05379125
152	0x3ba07bd1	0.0048975726
153	0x3e30213c	0.17200178
154	0xbd993986	-0.07481675
155	0xbb7eab33	-0.0038859367
156	0xbe02a512	-0.12758282
157	0xbe1a021c	-0.15039867
158	0x3e38c6a9	0.18044533
159	0xbcb442a1	-0.022004427
160	0xbc15ed75	-0.009150852
161	0xbd799ca2	-0.060940392
162	0xbbcd3a76	-0.0062630726
163	0x3d2f6565	0.042821307
164	0x3e29c528	0.16579115
165	0xbd816d13	-0.063196324
166	0x3c16586c	0.009176355
167	0xbc38908a	-0.01126493
168	0x3c9dc9f3	0.019261336
169	0x3e2d5674	0.1692751
170	0xbe3f171b	-0.18661158
171	0x3cd2b886	0.025722753
172	0xbdae958c	-0.085246176
173	0xbe591dd2	-0.21202782
174	0xbe418fd4	-0.18902522
175	0xbe32ff8b	-0.17480294
176	0x3d89e1c3	0.06732514
177	0xbd83980e	-0.064254865
178	0x3d5da5bb	0.05411313
179	0xbdc2af94	-0.09506145
180	0xbd28bf25	-0.041197915
181	0xbdd93678	-0.10606092
182	0x3dde3021	0.108490236
183	0x3d26b97a	0.040704228
184	0xbe0e8b78	-0.1392039
185	0x3dcdb7a1	0.1004479
186	0x3aacec92	0.0013193062
187	0xbe3f18fb	-0.18661873
188	0x3e602cfa	0.21892157
189	0xbdf1af99	-0.11801071
190	0x3ea52292	0.32252938
191	0x3e5c6432	0.21522596
192	0xbd93a7d9	-0.07209749
193	0x3cbc3612	0.022975001
194	0x3db006d9	0.08595056
195	0x3e000360	0.12501287
196	0x3d379e66	0.044828795
197	0x3da63263	0.08115079
198	0xbe70b003	-0.23504643
199	0x3eaf3dfb	0.34226975
200	0x3dbc977d	0.092085816
201	0xbcc19552	-0.023630772
202	0x3d6083db	0.054813247
203	0xbe5736e4	-0.21017033
204	0x3e9047af	0.2817969
205	0x3ebc3d40	0.3676548
206	0x3a2dace5	0.00066251896
207	0x3b22a5bd	0.0024818026
208	0x3e85b182	0.2611199
209	0x3e2f7a7a	0.17136565
210	0xbd3f117a	-0.046647526
211	0x3e119363	0.1421638
212	0xbdddc888	-0.10829264
213	0xbd61232e	-0.05496519
214	0xbca14428	-0.01968582
215	0xbbe878ea	-0.007094492
216	0xbe09cbb1	-0.13456608
217	0x3e2ee511	0.1707957
218	0x3d1b9b5e	0.037989967
219	0xbbe996c2	-0.0071285674
220	0x3e2579b6	0.1615971
221	0x3d6a5955	0.0572141
222	0x3da31d8d	0.07964621
223	0xbe4542f8	-0.19263828
224	0xbc4fe5ef	-0.012689098
225	0xbc5436c3	-0.012952509
226	0xbca58899	-0.020206736
227	0x3d780b5b	0.060557704
228	0xbe4c991f	-0.19980286
229	0x3cda8075	0.026672581
230	0x3e4b7187	0.19867526
231	0x3e878a9a	0.26472932
232	0xbb967a68	-0.0045922287
233	0x3e7ae317	0.2450069
234	0xbdd98557	-0.10621136
235	0xbcfc574c	-0.030803345
236	0xbcfc397e	-0.030789133
237	0x3e03246e	0.12806866
238	0x3e0ea9f9	0.13932027
239	0x3daf80aa	0.085694626
240	0xbc2ce4fb	-0.01055264
241	0x3e41d6ec	0.18929642
242	0x3dace6a5	0.084424295
243	0x3ddfafa7	0.10922175
244	0x3e49b455	0.19697697
245	0xbdff611d	-0.12469695
246	0xbd17dc01	-0.037075046
247	0x3d49a4ab	0.049229305
248	0x3db9fbbb	0.09081217
249	0x3c0528bf	0.00812739
250	0x3ddf4a84	0.109028846
251	0x3e1da6c6	0.1539565

lstm1_a.bias_hh_l0 f4 [252]
0	0xbdadd330	-0.084875464
1	0x3e9e9e96	0.30980366
2	0xbd712af7	-0.058878865
3	0xbabf87fe	-0.0014612672
4	0x3d319335	0.04335328
5	0x3e11e222	0.14246419
6	0x3e0c9771	0.13729645
7	0x3b9dd5e3	0.004816757
8	0x3e3da8ee	0.18521473
9	0xbddcca03	-0.10780718
10	0x3d8ef76c	0.06980786
11	0x3df2cfe8	0.11856061
12	0x3c587eb0	0.013213798
13	0x3e2e680f	0.17031883
14	0xbe2e24dc	-0.17006248
15	0x3dcab8d8	0.098985374
16	0x3e86d22a	0.26332217
17	0x3d24ed0b	0.040265124
18	0x3e2b0e74	0.16704732
19	0x3e323616	0.17403445
20	0x3e133e3e	0.14379212
21	0x3cd0e950	0.025501877
22	0x3e5407fd	0.20706172
23	0xb944086c	-0.00018695154
24	0x3e145686	0.14486131
25	0xbe2d59ba	-0.16928759
26	0xbd3608e7	-0.044442084
27	0x3c8cd9db	0.017193725
28	0xbc384816	-0.011247655
29	0x3e4e63a3	0.20155196
30	0xbd9ffd84	-0.07812026
31	0xbd479318	-0.048724264
32	0x3e10c86c	0.14138955
33	0x3e9d20f8	0.30689216
34	0xbe35da18	-0.17758977
35	0xbdf3351c	-0.11875364
36	0xbce25974	-0.027630545
37	0xbe814914	-0.25251067
38	0x3d55bdde	0.052183025
39	0x3e12eb0c	0.14347476
40	0x3c85e866	0.016346168
41	0xbd5b48de	-0.05353629
42	0x3e9a6876	0.30157822
43	0x3cceaf1a	0.02522998
44	0x3d599f44	0.053130403
45	0xbdcdccf4	-0.10048857
46	0x3d614e16	0.05500611
47	0xbd06eab7	-0.032938685
48	0x3e848ebb	0.25890145
49	0xbd81bb1b	-0.06334516
50	0xbd8b2e72	-0.06795968
51	0xbd0af3b0	-0.033923805
52	0x3e360870	0.17776656
53	0xbdcd5e89	-0.10027797
54	0x3e1ee3d2	0.15516594
55	0x3e07ed00	0.13274002
56	0x3d6107eb	0.05493919
57	0xbc92a67a	-0.017901648
58	0xbcbc714a	-0.02300324
59	0x3dd5deaf	0.10442864
60	0x3d126e16	0.035749517
61	0x3d1ac774	0.03778787
62	0x3e4017be	0.18759057
63	0x3ba9c83b	0.00518134
64	0xbbe2122d	-0.0068991394
65	0x3d5c2cf6	0.053753816
66	0xbe107b32	-0.14109495
67	0x3c294673	0.010331738
68	0xbc4630f8	-0.012096636
69	0xbc62bb07	-0.013838536
70	0xbd2594ec	-0.040425226
71	0x3c8e52a1	0.017373385
72	0xbe166006	-0.14685068
73	0x3e0f1a20	0.1397481
74	0x3c27421d	0.010208634
75	0xbda99656	-0.082806274
76	0xbc5b5ba7	-0.013388551
77	0xbd9b91b0	-0.07596147
78	0x3df2db2b	0.11858209
79	0x3e1bff8d	0.15234204
80	0xbe19411c	-0.14966244
81	0xbe5acffa	-0.213684
82	0x3bfa3987	0.0076362523
83	0xbce35d4b	-0.027754446
84	0x3cd4f6dc	0.025996618
85	0xbd629045	-0.055313367
86	0xbe39337d	-0.18086047
87	0x3d2e7113	0.042588305
88	0xbd6c671c	-0.05771552
89	0x3c5a47d6	0.013322791
90	0x3dd5b12f	0.10434186
91	0xbdcef21d	-0.10104773
92	0x3c67c2b1	0.014145539
93	0x3e3d58ef	0.18490957
94	0x3dbc3c6b	0.09191211
95	0x3e4f0c3e	0.20219514
96	0xbd168bbc	-0.036754355
97	0x3d846918	0.064653575
98	0xbe69066d	-0.22756357
99	0x3ca5bcf1	0.020231696
100	0xbe36c0e2	-0.17847016
101	0x3d1b2c07	0.037883785
102	0xbdbb28db	-0.09138652
103	0x3c6c38ad	0.014417809
104	0x3c3c1c51	0.0114813605
105	0x3deb4e00	0.11489487
106	0xbd102674	-0.03519292
107	0xbcf246ab	-0.029574713
108	0xbe1977f7	-0.14987169
109	0xbe1dbd93	-0.15404348
110	0xbc87a7cf	-0.01655951
111	0x3e192a7c	0.14957613
112	0x3da8aa70	0.082356334
113	0xbe251c51	-0.16124083
114	0xbdca30c3	-0.09872582
115	0x3e7db417	0.2477573
116	0x3d942c1d	0.072349764
117	0xbd80f79c	-0.06297228
118	0xbd95c8cf	-0.07313692
119	0xbd4501fa	-0.048097588
120	0xbe13a7b0	-0.14419436
121	0xbe0b3a74	-0.13596517
122	0xbd8bf6c0	-0.06834173
123	0xbd2b8b10	-0.041880667
124	0xbd736d79	-0.059430573
125	0xbd1ea838	-0.038734645
126	0x3d815d2b	0.063165985
127	0x3d8d96a8	0.06913501
128	0x3cb23d16	0.021757644
129	0x3d022e2f	0.031782325
130	0xbd0c62f2	-0.03427405
131	0xbd792859	-0.060829494
132	0x3d74a790	0.059730113
133	0x3e0d1a0f	0.13779472
134	0xbd8b0224	-0.06787518
135	0x3c54d054	0.012989122
136	0xbd28232a	-0.04104916
137	0xbd21984b	-0.03945188
138	0xbe2d69cf	-0.16934894
139	0x3b218183	0.0024643845
140	0xbda6829f	-0.08130383
141	0x3dbdf097	0.092744045
142	0x3dea4670	0.11439216
143	0xbe0a7cde	-0.13524196
144	0x3d8aefba	0.067840055
145	0x3d10872d	0.035285164
146	0x3e8134fd	0.2523574
147	0x3dc5c232	0.096561804
148	0x3e3ca00a	0.18420425
149	0x3de7f95c	0.113268584
150	0x3df5d424	0.12003353
151	0x3d1f7a49	0.03893498
152	0x3c9531ad	0.018212164
153	0xbae5e1de	-0.0017538627
154	0xbe387cfc	-0.18016428
155	0x3dd8135c	0.105505675
156	0xbe21bab6	-0.15793881
157	0xbd8a6510	-0.067575574
158	0x3daee87c	0.085404366
159	0xbdc03415	-0.09384934
160	0xbc86e01e	-0.01646429
161	0x3daf37c3	0.085555576
162	0x3d9998e4	0.07499865
163	0xbc914e4b	-0.017737528
164	0x3ca0b6ed	0.019618476
165	0x3cda0bb8	0.026616916
166	0x3cb0e315	0.021592656
167	0x3d283bdd	0.041072715
168	0xbd7a4c9d	-0.06110822
169	0x3c018c8f	0.007907047
170	0xbbe5f2ab	-0.0070174537
171	0xbd36a188	-0.044587642
172	0xbdca67c4	-0.09883073
173	0xbe59e500	-0.21278763
174	0xbe6b9bc0	-0.23008633
175	0xbcdae8ae	-0.026722278
176	0xbd2fba7f	-0.042902466
177	0x3cf6e9ef	0.030140845
178	0x3cc7cf96	0.024390977
179	0xbd0e0334	-0.034671023
180	0xbe44473a	-0.19167796
181	0x3d3b8cd0	0.045788586
182	0x3dfc1369	0.1230839
183	0xbd43e886	-0.047829174
184	0xbd94caaf	-0.07265221
185	0x3e2a4b83	0.16630368
186	0xbe286f50	-0.16448712
187	0xbd4fb779	-0.050712083
188	0x3d9c4ab4	0.07631436
189	0x3ba507a1	0.00503631
190	0x3ea223fa	0.31668073
191	0x3d494d93	0.049146246
192	0xbe2e55de	-0.17024943
193	0xbe253247	-0.1613246
194	0x3e7f1ad8	0.24912584
195	0x3e9f32b8	0.31093383
196	0x3cf8d807	0.030376447
197	0x3c923c25	0.017850945
198	0xbdd45456	-0.10367648
199	0x3eb4b543	0.35294542
200	0x3d7ba2c6	0.06143453
201	0xbd7fee2f	-0.06248301
202	0x3c2fa724	0.010721002
203	0xbe8772d0	-0.26454782
204	0x3ddcf6cd	0.10789261
205	0x3edac088	0.42725015
206	0xbcf70b3c	-0.030156724
207	0xbde35e62	-0.111019865
208	0x3ea5b694	0.3236586
209	0x3e4b6644	0.1986323
210	0x3e2086fd	0.15676494
211	0x3dc6a84f	0.09700071
212	0xbe52e880	-0.20596504
213	0x3b60d4c4	0.0034306506
214	0xbd9c5dcd	-0.076350786
215	0xbd9009ef	-0.07033145
216	0x3cf426dd	0.029803688
217	0x3dae8e82	0.08523275
218	0x3dfb28fe	0.12263678
219	0x3dc4d842	0.096115604
220	0x3e844d81	0.2584038
221	0x3e6c1c73	0.23057728
222	0x3de6c109	0.11267287
223	0xbe0ade6a	-0.13561407
224	0xbd053523	-0.03252138
225	0x3dd54bac	0.10414824
226	0xbe33061e	-0.17482802
227	0x397dac9e	0.00024192265
228	0xbda2e758	-0.079542816
229	0xbdd6a817	-0.10481279
230	0x3e5d4ccf	0.21611331
231	0x3e786369	0.24256672
232	0x3e4bf3b1	0.1991718
233	0x3e7b0e87	0.2451726
234	0xbeb4d100	-0.35315704
235	0x3dbcc517	0.092172794
236	0xbdbb3b7f	-0.09142207
237	0x3e5b052e	0.21388695
238	0x3db15c8f	0.08660232
239	0xbd68d44c	-0.056843087
240	0xbdda876c	-0.10670361
241	0x3e940404	0.28909314
242	0xbd81188b	-0.06303509
243	0x3e2f76e1	0.17135192
244	0x3e619def	0.22032903
245	0xbd82910a	-0.0637532
246	0xbde8b0f3	-0.113618754
247	0x3e222693	0.15835027
248	0x3caeefdd	0.02135461
249	0xbd41cb44	-0.04731299
250	0x3e551887	0.20810138
251	0x3e30e8f4	0.17276365

fc2_a.weight f4 [64, 64]
0	0xbe2787b6	-0.16360363
1	0x3dff4f15	0.124662556
2	0xbd76994f	-0.0602048
3	0xbdc9df77	-0.09857076
4	0xbb861ed2	-0.0040930295
5	0x3c3cdcd2	0.011527257
6	0x3db17594	0.086650044
7	0xbe033623	-0.1281362
8	0x3de238d2	0.11045994
9	0x3d45fa5d	0.04833447
10	0xbdd8a737	-0.10578769
11	0x3d84b5b3	0.06479969
12	0x3d88f1fa	0.06686778
13	0x3da6baad	0.08141074
14	0x3d6921f4	0.056917146
15	0xbdf24d0f	-0.11831104
16	0x3deba11c	0.115053385
17	0x3e0dd471	0.13850571
18	0xbda2a83c	-0.079422444
19	0xbe7ccc2b	-0.24687259
20	0xbe1fdbbd	-0.15611167
21	0xbe32d36b	-0.17463462
22	0x3bf4cfb5	0.0074710497
23	0xbdaa0e97	-0.08303564
24	0xbc36f0ae	-0.011165781
25	0x3c6bc01b	0.014389063
26	0xbd3f58e1	-0.04671562
27	0xbcf763c5	-0.030198941
28	0x3ea6c97a	0.3257559
29	0xbde245a6	-0.11048441
30	0x3d588094	0.052856997
31	0x3e42d36b	0.19025962
32	0xbe59b6d0	-0.21261144
33	0xbc8dda4f	-0.017316012
34	0xbd75b6c9	-0.05998877
35	0xbdddad53	-0.108240746
36	0x3b049987	0.002023311
37	0x3d10218b	0.03518824
38	0xbe115b9b	-0.14195101
39	0xbcac6c39	-0.021047698
40	0x3d87905a	0.0661933
41	0xbcbdc187	-0.02316357
42	0x3eee3226	0.46522635
43	0xbd4c2dec	-0.049848482
44	0x3e932c07	0.28744528
45	0x3b5049c2	0.0031782244
46	0x3de1b5a8	0.11020976
47	0x3af1c8c2	0.0018446671
48	0x3e444eb6	0.19170651
49	0x3de5d15e	0.11221574
50	0xbcf2ee3b	-0.029654613
51	0x3d8ac022	0.06774928
52	0x3e3a6da7	0.18205892
53	0x3e020dad	0.1270053
54	0x3d9b3df9	0.0758018
55	0x3e3c58f4	0.18393308
56	0xbe1535a5	-0.14571245
57	0xbd092c70	-0.033489645
58	0x3d711b77	0.058864083
59	0xbe1a51a1	-0.15070201
60	0xbbc60322	-0.006042854
61	0x3d8e7f72	0.06957902
62	0xbc94be92	-0.018157277
63	0x3e8ee2f3	0.27907524
64	0x3cec6a81	0.028859379
65	0x3f11af28	0.5690789
66	0xbddf22e5	-0.108953275
67	0x3dfba964	0.12288168
68	0xbd748962	-0.05970133
69	0xbdae4c62	-0.085106626
70	0x3ecc5af7	0.3991315
71	0xbd6b4413	-0.057437968
72	0xbe3b2aee	-0.18278095
73	0xbb0c9cb0	-0.0021455698
74	0xbec489d0	-0.38386393
75	0x3d3cfa7e	0.046137325
76	0xbe110c9b	-0.14164965
77	0xbbf8c88f	-0.007592268
78	0x3c8e72a6	0.017388653
79	0xbded01cc	-0.11572608
80	0x3ebe98ec	0.37226045
81	0xbdc85135	-0.09781114
82	0x3d5d8792	0.054084368
83	0xbdb8408b	-0.089966856
84	0x3d70f44a	0.058826722
85	0xbc5f5d78	-0.0136331245
86	0xbd1a02c2	-0.037600286
87	0xbd9030be	-0.07040547
88	0xbc6efa16	-0.014585992
89	0x3e24576a	0.16048971
90	0xba4d78f5	-0.00078381534
91	0x3d254226	0.040346287
92	0x3d44c52c	0.0480396
93	0x3da77c8b	0.081780516
94	0xbdcbe0e8	-0.09955007
95	0xbdafc969	-0.08583338
96	0xb9d71157	-0.00041020915
97	0xbdf76451	-0.12079681
98	0x3d8b5ae5	0.06804446
99	0x3d8da340	0.06915903
100	0x3d8578e7	0.06517201
101	0x3d162d39	0.03666422
102	0x3d680dda	0.056653835
103	0xbdd4d23a	-0.1039166
104	0x3e090f5a	0.13384762
105	0xbdebb7b2	-0.115096465
106	0x3ee290c9	0.44251087
107	0xbdb4caf6	-0.08827774
108	0x3d1eb121	0.038743142
109	0xbd0b829e	-0.034060113
110	0xbd44ca87	-0.048044708
111	0xbdd637c6	-0.10459857
112	0xbe859691	-0.26091436
113	0x3df1dea3	0.11810043
114	0x3da32b1b	0.07967206
115	0x3d58f067	0.05296364
116	0x3ebac2fb	0.36476883
117	0xbd9e69f2	-0.07735051
118	0xbddc9a25	-0.10771588
119	0x3c72db38	0.014822774
120	0x3dc06c29	0.0939563
121	0x3ce5bd98	0.028044507
122	0x3d8ffb36	0.070303366
123	0x3d521db4	0.05129786
124	0xbe15fabf	-0.14646433
125	0xbacbfd4f	-0.0015563163
126	0x3e7b6c5a	0.24553052
127	0x3b976694	0.0046203826
128	0x3e1c9e5b	0.15294783
129	0x3e88249b	0.26590428
130	0x3da765cc	0.08173713
131	0x3e132566	0.14369735
132	0xbe182368	-0.14857256
133	0xbe45aac1	-0.19303419
134	0x3e2f77a9	0.1713549
135	0x3d8bad2f	0.068201415
136	0xbdb8c411	-0.09021772
137	0x3c3e9381	0.011631847
138	0xbe472c88	-0.19450581
139	0x3dc24296	0.094853565
140	0xbd93d846	-0.07218985
141	0xbe231f9c	-0.15930027
142	0x3cb672f5	0.022271613
143	0xbc84a162	-0.016190235
144	0x3e441133	0.19147186
145	0xbdaa9f4e	-0.08331166
146	0x3ced288b	0.028949996
147	0x3dcf3c95	0.10118977
148	0x3e2eacae	0.1705806
149	0x3c96c8f6	0.018406373
150	0x3e483751	0.19552352
151	0x3e3f190b	0.18661897
152	0x3dbb637a	0.09149833
153	0x3e0cc0ed	0.1374547
154	0x3dda8c6f	0.10671317
155	0x3e55e020	0.20886278
156	0xbe6ea975	-0.2330683
157	0x3de9177d	0.11381433
158	0xbe1cb4b2	-0.15303305
159	0xbe093ca6	-0.13402042
160	0x3e8e0bd8	0.2774341
161	0xbe135c50	-0.14390683
162	0x3e66d68c	0.2254278
163	0x3e25e856	0.1620191
164	0x3d9cedc6	0.07662539
165	0xbc8354e1	-0.016031684
166	0x3d8fd59c	0.07023165
167	0xbd6886e1	-0.056769256
168	0x3e88993e	0.26679415
169	0xbd27d95b	-0.04097877
170	0x3d998f8b	0.07498082
171	0x3d8ab0ac	0.06771979
172	0xbe78618d	-0.24255963
173	0x3de6a0e7	0.112611584
174	0xbc4bd52c	-0.012440961
175	0xbe2f9cb4	-0.17149621
176	0xbe11c026	-0.14233455
177	0xbd95025d	-0.072758414
178	0xbd9f6197	-0.07782286
179	0xbe19538e	-0.1497328
180	0x3dae0414	0.084968716
181	0xbdea28bf	-0.11433553
182	0xbe2f5bb4	-0.17124826
183	0xbe0f70bf	-0.14007853
184	0x3e701428	0.23445189
185	0xbdb14e8d	-0.086575605
186	0xbd4633b7	-0.048389163
187	0x3e4d2292	0.20032719
188	0xbdf0aca1	-0.11751676
189	0xbe7b4ebb	-0.24541752
190	0x3e052900	0.13003922
191	0xbe5f40f8	-0.21802127
192	0xbd0f72c7	-0.03502157
193	0xbec4534e	-0.38344806
194	0x3d269af2	0.04067511
195	0x3dc7b0f6	0.097505495
196	0x3d91def1	0.07122601
197	0x3c6b6dc7	0.014369435
198	0xbebaf9a6	-0.36518592
199	0x3dff3697	0.12461584
200	0x3d31e227	0.043428566
201	0xbd78b48b	-0.060719054
202	0x3ec18775	0.37798658
203	0xbc2a2192	-0.01038398
204	0xbccdea9d	-0.025136286
205	0xbe123e24	-0.14281517
206	0xbde11e21	-0.10992075
207	0x3d8e31b5	0.069430746
208	0xbec3e04b	-0.3825706
209	0x3c869674	0.016429164
210	0x3ce23b2d	0.027616108
211	0x3ecf0145	0.40430656
212	0x3d94621e	0.07245277
213	0x3dbb6bc6	0.091514155
214	0x3a8165b8	0.0009872233
215	0x3dfc9746	0.123335406
216	0x3db8c61e	0.09022163
217	0xbc26179c	-0.010137465
218	0x3e02b3e1	0.12763931
219	0xbe0db870	-0.13839889
220	0xbea7defa	-0.32787305
221	0x3e6f36b6	0.23360714
222	0xbe204405	-0.15650947
223	0xbe1369c7	-0.1439582
224	0x3dc812a1	0.09769178
225	0x3da9c88f	0.08290207
226	0x3dc3cbec	0.095603794
227	0x3da9ce9c	0.08291361
228	0x3d2350b4	0.039871886
229	0x3d9d9f4e	0.076964006
230	0xbd91d34f	-0.07120382
231	0xbcef456d	-0.02920791
232	0x3d00189a	0.031273462
233	0x3d535bad	0.0516011
234	0xbf30cf73	-0.6906654
235	0x3e12dbfe	0.14341733
236	0xbebf9c76	-0.37424058
237	0x3db487ac	0.0881494
238	0x3e15b743	0.1462069
239	0xbe10b978	-0.1413325
240	0xbdc98128	-0.09839088
241	0xbe419170	-0.18903136
242	0xbd3896d2	-0.04506571
243	0xbdab050e	-0.083505735
244	0xbe680eaf	-0.22661851
245	0xbe081cf8	-0.132923
246	0xbd24f54b	-0.040272992
247	0xbe3eb50f	-0.18623756
248	0x3df78449	0.12085778
249	0xbd041276	-0.03224417
250	0x3b55cecb	0.003262448
251	0x3d0b1666	0.033956908
252	0xbde7ca6a	-0.11317904
253	0xbb51256d	-0.0031913177
254	0x3c9e0f0e	0.019294288
255	0xbe7ea806	-0.24868783

fc2_a.bias f4 [64]
0	0xbe6cca73	-0.23124103
1	0x3e00a7c1	0.12563993
2	0x3d6ce72e	0.057837658
3	0x3be0db7f	0.0068621035
4	0x3d8822e0	0.06647277
5	0xbe116abe	-0.14200875
6	0x3e06c1e2	0.13159898
7	0xbe63cd7d	-0.22246356
8	0xbce0abed	-0.02742573
9	0x3e2ca855	0.16861089
10	0xbe1d2c1a	-0.15348855
11	0x3e54385b	0.20724623
12	0x3d0b1c45	0.033962507
13	0x3c195f20	0.0093610585
14	0xbe320bfa	-0.17387381
15	0x3de53dd4	0.111934334
16	0x3e22b5cb	0.15889661
17	0x3d9a1056	0.07522647
18	0x3da48cd3	0.080346726
19	0x3dc7f154	0.097628266
20	0x3c66c464	0.014084909
21	0x3e2c639c	0.16834873
22	0xbd0fc485	-0.035099525
23	0xbc4f4600	-0.012650967
24	0xbe3e1ca9	-0.1856562
25	0x3d80a72b	0.06281885
26	0xbd0d63a9	-0.03451887
27	0xbe2689ea	-0.16263548
28	0xbe3c510b	-0.1839029
29	0x3e398529	0.18117203
30	0x3b42571c	0.0029653972
31	0x3d3f9ced	0.046780515
32	0xbd406849	-0.046974454
33	0x3d3f1089	0.04664663
34	0x3d46cff8	0.04853818
35	0x3dd3a912	0.10334982
36	0x3dd8e59f	0.10590672
37	0xbe10b9da	-0.14133397
38	0xbe2ca4a5	-0.16859682
39	0xbd70fe68	-0.05883637
40	0x3c27ef0f	0.010249867
41	0xbd1c62e3	-0.038180243
42	0xbd3abb41	-0.045588735
43	0xbbde7810	-0.006789215
44	0x3d949463	0.07254865
45	0x3e2e6337	0.17030035
46	0xbe060874	-0.13089162
47	0x3e1ee1a4	0.15515763
48	0xbe0a5588	-0.1350919
49	0x3c271704	0.010198358
50	0x3dae40af	0.08508431
51	0x3d66fab7	0.056391444
52	0x3e5c7ba4	0.2153154
53	0xbde8ceac	-0.113675445
54	0xbe7a10af	-0.24420427
55	0x3d111aa1	0.035425786
56	0x3e31e5bf	0.17372797
57	0xbdc6d392	-0.097083226
58	0x3d510387	0.051028755
59	0xbda053e8	-0.07828504
60	0x3e4da01a	0.20080605
61	0xbe657d7c	-0.2241115
62	0x3cecf60e	0.028925922
63	0x3e5d238f	0.21595596

fc3_a.weight f4 [2, 64]
0	0xbf31a685	-0.69394714
1	0x3ead2015	0.3381354
2	0x3f6b0154	0.917989
3	0x3ebfc780	0.37456894
4	0x3eac08d6	0.3360049
5	0xbec15a40	-0.37764168
6	0x3f03a590	0.51424503
7	0xbf1fa4d7	-0.623609
8	0xbddd42b1	-0.10803736
9	0x3f812ba8	1.0091448
10	0xbed3c04a	-0.41357642
11	0x3f472bf9	0.7780147
12	0xbd99af81	-0.07504178
13	0x3cf79441	0.03022206
14	0xbf7b98bf	-0.9827995
15	0x3d15dbed	0.03658669
16	0x3f202fc3	0.6257288
17	0x3eb9b562	0.36271197
18	0x3d862911	0.065508015
19	0x3ecea559	0.40360525
20	0xbeb6d970	-0.35712767
21	0x3ec6378c	0.38714254
22	0xbea48287	-0.32130834
23	0xbaf37834	-0.0018575252
24	0xbea22221	-0.31666663
25	0x3ebb42ad	0.36574307
26	0xbdab354a	-0.083597735
27	0xbf381dfa	-0.7192074
28	0xbe99c058	-0.3002956
29	0x3e9d51fe	0.30726618
30	0x3e53e276	0.20691857
31	0x3eaba2ed	0.3352274
32	0x3bbf239e	0.0058331033
33	0xbda2cf2a	-0.0794967
34	0x3e4b71ab	0.1986758
35	0x3e9f1fec	0.31079042
36	0x3e99c139	0.3003023
37	0xbe45e5b7	-0.1932591
38	0xbeb491cb	-0.3526748
39	0xbe83be28	-0.25731015
40	0xbeb95def	-0.36204478
41	0xbdaa44f9	-0.08313937
42	0x3c97aa34	0.018513776
43	0x3e31d748	0.1736728
44	0xbdac7913	-0.084215306
45	0x3f09e894	0.5387051
46	0xbe9e101b	-0.30871662
47	0x3f1559a5	0.5833991
48	0xbe60e2a0	-0.2196145
49	0xbe448b8d	-0.1919386
50	0x3e82a8eb	0.255195
51	0x3e19cf01	0.15020372
52	0x3e5b1790	0.21395707
53	0xbea66b74	-0.32503855
54	0xbf616c67	-0.88056034
55	0x3f2d53be	0.67705905
56	0x3ee6afc0	0.45055962
57	0xbebef0d0	-0.372931
58	0x3df1b4aa	0.11802037
59	0xbe0cde68	-0.13756716
60	0x3f024398	0.5088439
61	0xbe9f2fa6	-0.3109104
62	0xbe239f61	-0.15978767
63	0x3f40469e	0.75107753
64	0x3d324d79	0.043530915
65	0x3ddb805e	0.107178435
66	0x3c9be433	0.019029712
67	0xbdc017da	-0.09379549
68	0xbc747025	-0.014919315
69	0xbd80728f	-0.0627185
70	0xbddfc0c2	-0.109254375
71	0x3d9fa073	0.07794275
72	0xbe22ced1	-0.15899207
73	0xbdb8cb2f	-0.09023129
74	0xbd648a3d	-0.055795897
75	0xbd12da30	-0.03585261
76	0x3e8fdea1	0.2809954
77	0x3e094dcd	0.13408585
78	0xbba546c3	-0.005043836
79	0x3e994f1b	0.29943165
80	0xbdce4ee9	-0.10073645
81	0xbe62ce12	-0.22148922
82	0x3e3a31b9	0.1818303
83	0xbd5b0f96	-0.05348166
84	0x3e24c7ed	0.1609189
85	0x3d648c4d	0.055797864
86	0x3e91be2b	0.284654
87	0xbec8f66d	-0.39250508
88	0xbe464e58	-0.19365823
89	0xbe566786	-0.20937929
90	0x3eca0d16	0.3946311
91	0x3d7e2a7e	0.062052242
92	0xbda2d7ac	-0.079512924
93	0x3e00ecfa	0.125904
94	0xbe1c282b	-0.15249698
95	0xbe930104	-0.28711712
96	0x3e2b2362	0.16712716
97	0xbe67cbba	-0.2263631
98	0x3e430a19	0.1904682
99	0xbe50d305	-0.20392998
100	0x3e0f1987	0.13974582
101	0xbdc7cc1b	-0.09755727
102	0xbdaa7ace	-0.083242044
103	0x3e9894e0	0.29801083
104	0x3e678b99	0.22611846
105	0x3e80906a	0.2511018
106	0x3e1fb2cf	0.15595554
107	0xbe3c5603	-0.18392186
108	0x3e79fcb5	0.24412806
109	0xbd86c58a	-0.06580646
110	0x3cdc6c1a	0.026907016
111	0xbdd910a9	-0.10598881
112	0xbd0977c7	-0.033561494
113	0x3eb04091	0.3442426
114	0xbe607c55	-0.21922429
115	0x3e88b492	0.26700264
116	0x3d7782ef	0.060427602
117	0x3e8d4a30	0.27595663
118	0x3d10781d	0.0352708
119	0xbcb8ddf3	-0.022566771
120	0xbe8705bf	-0.2637157
121	0xbdcb939d	-0.099402644
122	0xbe3ceaac	-0.18448895
123	0x3e9a7afb	0.30171952
124	0xbd2c9354	-0.04213269
125	0xbd32dcf6	-0.043667756
126	0xbdbb67c8	-0.09150654
127	0xbd9407a9	-0.072280236

fc3_a.bias f4 [2]
0	0x3e8cc788	0.2749598
1	0x3dee2593	0.116282605

lstm1_c.weight_ih_l0 f4 [252, 3]
0	0xbe9cc895	-0.30621782
1	0xbdbfb25e	-0.09360193
2	0xbe33e3eb	-0.17567413
3	0xbd0f42ca	-0.034975804
4	0x3db75c5a	0.089531615
5	0xbe3b63d3	-0.18299799
6	0x3df1f560	0.1181438
7	0x3f844fd0	1.0336857
8	0x3f8015ff	1.0006713
9	0xbd53ab80	-0.051677227
10	0xbc66bb60	-0.01408276
11	0x3d8520dc	0.06500408
12	0x3d372ba1	0.044719342
13	0xbe0837db	-0.13302557
14	0xbe80426a	-0.2505067
15	0x3cf02347	0.029313697
16	0xbdbcf7d8	-0.0922696
17	0x3e07fad3	0.13279276
18	0xbe8b7ce6	-0.27243727
19	0x3d9d2ee7	0.076749615
20	0xbe2f9c3e	-0.17149445
21	0x3cc5cddf	0.024146019
22	0x3ca7c640	0.020480275
23	0x3e641330	0.22272944
24	0xbd930c5d	-0.071800925
25	0x3efeec9e	0.497899
26	0x3ea9ddfb	0.3317717
27	0x3cfd31e9	0.030907588
28	0xbe0af3c7	-0.13569556
29	0xbf03687c	-0.51331306
30	0x3cbacfa5	0.02280409
31	0x3e97f465	0.29678646
32	0xbcaf1853	-0.021373903
33	0xbd97300d	-0.07382212
34	0xbdb3d087	-0.08780008
35	0x3c716875	0.014734377
36	0xbd9212be	-0.07132481
37	0xbe9072ef	-0.28212687
38	0x3dcc16a5	0.099652566
39	0xbdb26ef8	-0.08712572
40	0x3e73d968	0.23813403
41	0xbc486ca0	-0.0122329295
42	0xbea148a1	-0.31500724
43	0x3c98036c	0.01855632
44	0xbda4c485	-0.080452956
45	0x3d1c85b7	0.038213458
46	0x3dc8dc9b	0.09807702
47	0x3d22f563	0.0397848
48	0xbe72cadc	-0.23710197
49	0xbcb7848e	-0.022402074
50	0xbda9c667	-0.08289795
51	0xbd625829	-0.055259857
52	0xbbd13999	-0.00638504
53	0x3dca74e3	0.098855756
54	0x3d2af1c3	0.04173447
55	0xbe9e1619	-0.30876234
56	0xbd931927	-0.07182532
57	0x3ca33f76	0.019927721
58	0xbed6277c	-0.41827
59	0x3d0a76e1	0.033804778
60	0x3cfe6c3d	0.031057471
61	0xbf45d334	-0.77275395
62	0xbda4c277	-0.08044904
63	0xbe035dab	-0.128287
64	0xbc227bca	-0.009917209
65	0xbe49237e	-0.19642445
66	0x3cbe03eb	0.023195228
67	0x3f43d1e6	0.76492155
68	0x3d97ad04	0.07406047
69	0x3e7a0234	0.24414903
70	0xbe768708	-0.24074948
71	0x3e5a32ae	0.21308395
72	0x3d777bd6	0.060420834
73	0x3f02243d	0.50836545
74	0xbe16cf7c	-0.14727587
75	0x3f49f3c9	0.7888761
76	0x3ee372ba	0.44423467
77	0x3f94260b	1.157411
78	0xbe0e0f4c	-0.13873023
79	0xbdcd711f	-0.10031342
80	0xbe69d087	-0.22833453
81	0x3d10bdd5	0.035337288
82	0x3df8ffba	0.12158151
83	0x3d3dea6d	0.046366144
84	0x3d24cd95	0.04023512
85	0x3e0de5ca	0.13857189
86	0xbe1b45e6	-0.15163383
87	0xbda2cbe0	-0.07949042
88	0xbe44c7e3	-0.19216876
89	0xbe3b43f3	-0.1828764
90	0xbd0c34d3	-0.034230065
91	0xbe32a8f2	-0.1744726
92	0xbc58ec53	-0.013239938
93	0xbd0c90fc	-0.034317955
94	0x3de9d55a	0.11417647
95	0x3e1d6cac	0.15373486
96	0xbe352e9f	-0.17693566
97	0xbc231cd7	-0.009955606
98	0xbd01536f	-0.03157371
99	0xbe8c8bac	-0.2745031
100	0xbdd528aa	-0.10408147
101	0xbdaa8abf	-0.08327245
102	0xbe909097	-0.28235313
103	0x3d0610ca	0.032730855
104	0xbd44950b	-0.0479937
105	0xbde97193	-0.11398616
106	0xbed7434f	-0.4204354
107	0xbd71f684	-0.059072986
108	0x3d00b744	0.031424776
109	0x3df8c56c	0.1214703
110	0x3c99d1d4	0.018776812
111	0x3d3f9d22	0.046780713
112	0xbe6a79bd	-0.22898002
113	0xba14e9e9	-0.0005680607
114	0x3c7349b7	0.014849118
115	0xbf176f1c	-0.59153914
116	0xbe2a0d6b	-0.16606681
117	0x3ebd3834	0.36956942
118	0xbe2a3b27	-0.16624127
119	0xbcbd95cd	-0.02314272
120	0x3d6b8990	0.057504237
121	0x3cb1841d	0.021669442
122	0x3de2befa	0.11071582
123	0x3e99a4b1	0.30008462
124	0xbe3d103c	-0.18463224
125	0xbcdfbdfc	-0.027312271
126	0xbea70de5	-0.32627788
127	0x3de3c0cb	0.11120757
128	0xbd9680c5	-0.073487796
129	0xbc7fad80	-0.0156053305
130	0x3e394f33	0.18096618
131	0xbe970ba8	-0.2950108
132	0xbe841bf4	-0.25802577
133	0xbdf490e4	-0.11941698
134	0x3db94d39	0.09047932
135	0x3d969e24	0.07354382
136	0xbdb70026	-0.08935575
137	0x3e79b617	0.24385868
138	0x3d134bff	0.035961147
139	0x3f386dd5	0.7204259
140	0x3e4a9d5b	0.19786589
141	0x3de5067c	0.111828774
142	0x3ea32fbd	0.3187236
143	0x3e466c14	0.19377166
144	0x3f9f00cf	1.2422122
145	0xbece8817	-0.40338203
146	0x3fce2d64	1.6107602
147	0xbe97ade4	-0.29624856
148	0xbde8d2a6	-0.11368303
149	0x3de1dd94	0.11028591
150	0x3d949b66	0.072562024
151	0xbb3f1065	-0.002915406
152	0x3e64450c	0.22291964
153	0x3e1e6883	0.15469556
154	0xbe9ea33c	-0.30983913
155	0x3e3f1a09	0.18662275
156	0x3df89abd	0.12138889
157	0x3ea99b3d	0.3312625
158	0x3e515622	0.20443013
159	0x3fc0f975	1.5076128
160	0xbddef3ff	-0.10886382
161	0x3f91f719	1.1403533
162	0x3cd27bf7	0.025693877
163	0x3f7f87a6	0.9981636
164	0xbe13e9ae	-0.1444461
165	0xbe3de8bd	-0.18545814
166	0x3e30999a	0.17246094
167	0xbc801472	-0.01563475
168	0x3cd45cd1	0.025923165
169	0xbca12c1d	-0.019674355
170	0x3e27e2e9	0.16395153
171	0x3da1042a	0.07862122
172	0xbdd2651c	-0.10273191
173	0x3e6b0322	0.22950414
174	0x3d3ca1d3	0.046052765
175	0x3dea4517	0.11438959
176	0xbf1dd263	-0.6164915
177	0x3d0c3f9a	0.034240343
178	0x3faa9f06	1.332978
179	0x3d02e6c2	0.03195835
180	0x3d331d6b	0.043729227
181	0xbe2c6e92	-0.16839054
182	0xbdc6a3ef	-0.096992366
183	0xbdef46de	-0.11683439
184	0x3d90ea06	0.070758864
185	0x3d9598dd	0.07304547
186	0x3ddbf001	0.107391365
187	0xbe3afa7a	-0.18259612
188	0x3d282b3d	0.04105686
189	0x3d1c562c	0.038168117
190	0x3b2391bf	0.0024958698
191	0x3d892be1	0.06697822
192	0x3e0f84d0	0.14015508
193	0xbd56df3e	-0.052458994
194	0xbe6303e7	-0.22169457
195	0xbe836f44	-0.25670826
196	0x3d3395f7	0.04384419
197	0xbe8f106d	-0.2794222
198	0x3e6e791e	0.2328839
199	0x3d3073d6	0.04307922
200	0xbdb9fdc7	-0.09081607
201	0x3d0fa756	0.035071693
202	0xbe154cdd	-0.14580102
203	0x3d8badb0	0.06820238
204	0xbd85ded5	-0.065366425
205	0x3e190395	0.14942773
206	0xbd586576	-0.052831136
207	0x3e1117d7	0.1416925
208	0xbe257249	-0.16156878
209	0xbe3b477b	-0.18288986
210	0x3da857b7	0.08219855
211	0x3e5b7b4b	0.21433751
212	0x3e1be2a8	0.15223181
213	0x3cb89c0b	0.022535345
214	0xbe18c3c4	-0.14918429
215	0xbdc1b407	-0.094581656
216	0x3c4d9a82	0.012549045
217	0x3e0e89ca	0.1391975
218	0xbe692853	-0.22769289
219	0xbb4a06db	-0.003082684
220	0xbcbf729f	-0.023370085
221	0xbd48cf34	-0.04902573
222	0x3e0cc393	0.1374648
223	0x3c3e862d	0.01162867
224	0xbd825e36	-0.063656256
225	0xbdae4fe0	-0.08511329
226	0xbb9f67b3	-0.004864657
227	0x3e04c077	0.12964045
228	0xbde3ecef	-0.11129176
229	0x3d93794e	0.072008714
230	0xbdf8f282	-0.1215563
231	0x3d3c94f3	0.046040487
232	0xbd818a52	-0.06325211
233	0x3e0220a0	0.12707758
234	0xbe156bc2	-0.14591888
235	0x3db4733d	0.088110425
236	0xbebcaf3d	-0.36852446
237	0x3e53c66d	0.20681162
238	0xbe4ac4a4	-0.19801575
239	0xbda34b4e	-0.079733476
240	0x3e802d62	0.25034624
241	0xbd44a62d	-0.04801004
242	0xbe534317	-0.20631061
243	0x3b89fb09	0.004210834
244	0xbd5502df	-0.05200469
245	0x3e091a97	0.1338905
246	0xbcccc55a	-0.024996448
247	0x3ebae148	0.365
248	0x3dd26845	0.10273794
249	0x3d060c72	0.032726713
250	0x3ed6c7ce	0.41949314
251	0xbbf32e6d	-0.007421306
252	0x3db31e9e	0.08746074
253	0x3e8fcef5	0.28087583
254	0x3d1e994d	0.038720418
255	0xbd3f99df	-0.046777602
