models/PPO_Continuous_drones2d-v0_91600_1564466648.pth (torch_old, 173444 bytes, 15 tensors)

lstm1_a.weight_ih_l0 f4 [252, 3]
0	0x3bfcafba	0.007711378
1	0x3d17b635	0.037039
2	0xbd94b8ca	-0.07261808
3	0xbd15d683	-0.036581527
4	0x3cba154d	0.022715235
5	0xbd02fbf9	-0.03197858
6	0x3db96441	0.09052325
7	0x3df22a20	0.11824441
8	0x3dfdc271	0.123906024
9	0x3cf8e811	0.030384095
10	0x3e289cc9	0.16466059
11	0x3daaf9bb	0.083484136
12	0x3d8f26b0	0.06989801
13	0xbe06c1b0	-0.13159823
14	0x3bd059ab	0.0063583455
15	0x3cfe3658	0.031031772
16	0xbd4f03aa	-0.050540604
17	0x3e08f73a	0.1337556
18	0x3dcb0848	0.09913689
19	0x3e54e27f	0.20789526
20	0x3dbac5d9	0.09119768
21	0xbc53e5cc	-0.012933206
22	0xbdd07221	-0.10178018
23	0xbdb98978	-0.09059423
24	0x3e9581b5	0.2920052
25	0xbd917137	-0.07101672
26	0x3dd2fd0c	0.10302171
27	0x3df88452	0.12134613
28	0x3dd00e58	0.10158986
29	0xbc842067	-0.016128732
30	0x3d9bbdb7	0.076045446
31	0xbb3a705f	-0.0028448326
32	0xbdd57870	-0.10423362
33	0xbd13fd9d	-0.036130536
34	0xbdaee12f	-0.08539044
35	0x3d81ac14	0.063316494
36	0xbdf798ee	-0.12089716
37	0x3c0363a3	0.008019361
38	0xbdac2931	-0.08406294
39	0xbdb91c6f	-0.090386264
40	0x3acda66b	0.0015689855
41	0xbdcec7a4	-0.10096672
42	0x3cd0b2d2	0.025475893
43	0x3c7ec2ef	0.0155494055
44	0xbcfff9f9	-0.031247126
45	0x3e299b04	0.1656304
46	0x3e7671a8	0.24066794
47	0xbb8529bb	-0.0040638126
48	0xbd0b141f	-0.033954736
49	0x3d4fe01b	0.050750833
50	0xbe118dce	-0.1421425
51	0x3d3bc155	0.045838673
52	0x3b3f9080	0.0029230416
53	0x3d01c7bc	0.031684622
54	0xbbf7f6f1	-0.0075672795
55	0x3db80f91	0.08987344
56	0xbe22146a	-0.158281
57	0xbdcc8032	-0.09985389
58	0xbdfc4782	-0.123183265
59	0x3ced45d4	0.02896396
60	0x3d223402	0.03960038
61	0x39abff3d	0.0003280583
62	0x3c4b49ef	0.012407764
63	0xbe001699	-0.1250862
64	0xbdb411ed	-0.087924816
65	0xbcba96ca	-0.02277698
66	0x3d625147	0.055253293
67	0x3d69048a	0.056889094
68	0x3d01ea59	0.031717632
69	0x3d44f5ca	0.048085965
70	0x3d8f7c7a	0.07006164
71	0xbd4fe392	-0.050754137
72	0x3e0aff34	0.13573915
73	0xbe28a63a	-0.1646966
74	0xbda2733f	-0.07932138
75	0x3d42be7e	0.04754495
76	0x3d53f7b1	0.05174989
77	0xbd011cbe	-0.03152155
78	0x3e1de35f	0.15418766
79	0xbcf6e69d	-0.030139262
80	0x3ce8d401	0.028421404
81	0xbde4996b	-0.11162075
82	0x3e2bd5c1	0.1678076
83	0xbd851d34	-0.06499711
84	0xbd260395	-0.04053076
85	0xbc32bb54	-0.01090892
86	0x3de9992f	0.114061706
87	0xbe0af675	-0.13570578
88	0x3d0774e2	0.033070453
89	0x3c276427	0.010216749
90	0xbde64157	-0.11242931
91	0x3ccc809b	0.024963668
92	0xbc97af2b	-0.018516144
93	0x3db4edfc	0.088344544
94	0x3dc2e2c6	0.0951591
95	0x3bdb265c	0.0066879224
96	0x3da8fb26	0.08251028
97	0xbe514a56	-0.20438513
98	0x3dd40ece	0.10354386
99	0x3d33ee60	0.043928504
100	0x3ce78fab	0.028266748
101	0x3cbaae35	0.022788147
102	0x3d0fbf1f	0.035094377
103	0xbd835a02	-0.06413652
104	0xbdc7cebd	-0.09756229
105	0x3a211c20	0.00061458535
106	0xbdd9409b	-0.10608026
107	0x3d4fdfb0	0.050750434
108	0x3b3c896a	0.0028768429
109	0x3d88da9f	0.06682324
110	0xbd9ba191	-0.07599176
111	0xbd660e3d	-0.056165922
112	0xbd2fec39	-0.04294989
113	0xbdc91ec4	-0.09820321
114	0xbd9dd5d1	-0.07706798
115	0x3e0a1afe	0.13486859
116	0x3d015918	0.031579107
117	0xbda232d3	-0.0791985
118	0x3d632b26	0.05546107
119	0xbd2a8e89	-0.04163984
120	0x3e1c8259	0.15284099
121	0xbe8b963d	-0.2726306
122	0x3ddcd542	0.10782863
123	0xbdc412d0	-0.09573901
124	0x3afe3ba7	0.001939644
125	0xbd7cb2ad	-0.061693836
126	0x3daa71b8	0.083224714
127	0xbcd39dfd	-0.02583217
128	0x3da430d5	0.080171265
129	0xbd3db1d6	-0.046312176
130	0xbe37c7d8	-0.17947328
131	0x3dc7cc00	0.09755707
132	0x3d5f2dce	0.054487042
133	0x3e30e936	0.17276463
134	0x3e00d29c	0.12580341
135	0xbd395542	-0.045247324
136	0xbc822a3c	-0.01588928
137	0xbd870060	-0.065918684
138	0xbd3fea68	-0.046854407
139	0x3c03ff81	0.008056522
140	0x3dac5051	0.08413757
141	0x3d122ff9	0.03569028
142	0x3da7441d	0.081672885
143	0x3d90d4e0	0.07071853
144	0x3ce5aef4	0.028037526
145	0xbe0d8e9f	-0.13823937
146	0xbde5b775	-0.11216632
147	0xbdeaa517	-0.1145727
148	0x3d9b27f8	0.07575983
149	0x3d4585b5	0.048223216
150	0xbb8516fe	-0.004061579
151	0xbd9d59c4	-0.07683137
152	0x3d5a53e1	0.05330265
153	0x3d070f56	0.03297361
154	0x3e810e64	0.25206292
155	0xbe144ed0	-0.1448319
156	0x39ba3c59	0.00035521647
157	0x3e055c1b	0.13023417
158	0xbe065905	-0.13119896
159	0x3cf98716	0.030459922
160	0xbdc08104	-0.09399608
161	0x3c359bcd	0.011084509
162	0x3e01de6a	0.126825
163	0xbba83ed9	-0.005134445
164	0xbe1694bb	-0.14705174
165	0x3d7f0683	0.06226207
166	0x3d06770e	0.032828383
167	0x3d74f1d9	0.059800956
168	0xbd829878	-0.06376737
169	0xbd1e99aa	-0.038720764
170	0xbd9fda54	-0.07805315
171	0xbcab7126	-0.020927977
172	0xbe0dd840	-0.13852024
173	0x3d379625	0.044820923
174	0xbd6c2b46	-0.057658456
175	0xbbe07a93	-0.0068505495
176	0xbc8b52f8	-0.017007336
177	0x3e18684e	0.14883539
178	0x3e40b0a7	0.18817388
179	0xbc5126cc	-0.012765598
180	0xbe0253ae	-0.12727234
181	0xbc7f7af0	-0.015593275
182	0x3c748d4c	0.014926266
183	0xbc29f3a3	-0.010373029
184	0xbdb48ce5	-0.08815936
185	0x3dc8c08d	0.09802351
186	0xbdc6c217	-0.097049884
187	0x3c936072	0.017990325
188	0x3df943b6	0.12171118
189	0xbd90120f	-0.070346944
190	0x3d665503	0.056233417
191	0xbd614863	-0.055000674
192	0x3d8140fe	0.063112244
193	0x3d840297	0.064458065
194	0xbb181779	-0.002320735
195	0x3cdb931e	0.02680355
196	0x3e63b320	0.222363
197	0x3d8243c6	0.06360583
198	0xbc9655e0	-0.018351495
199	0x3e206ad7	0.15665756
200	0xbcbeea9b	-0.023305228
201	0xbdc6d021	-0.09707666
202	0xbdeb82d4	-0.11499563
203	0xbe07a3a1	-0.13246013
204	0xb9113e74	-0.00013851543
205	0x3e2e0a4b	0.16996114
206	0xbd2f845b	-0.042850833
207	0x3d032175	0.03201433
208	0x3dc19a2d	0.09453235
209	0x3cb53485	0.02211977
210	0xbd3bb61d	-0.045827974
211	0x3d6f2d32	0.05839271
212	0x3d0dccea	0.03461925
213	0xbdfafd4e	-0.12255345
214	0xbe10defd	-0.14147563
215	0xbded7e10	-0.1159631
216	0xbcac0306	-0.020997535
217	0xbb3ca63f	-0.0028785614
218	0xbd3f2718	-0.046668142
219	0xbdb9102e	-0.09036289
220	0x3e00b4f2	0.12569025
221	0x3dba94c8	0.09110409
222	0xbd12bb3c	-0.035823092
223	0x3d0b31fd	0.03398322
224	0xbd019446	-0.031635545
225	0x3e0b2fed	0.13592501
226	0x3d43fba4	0.047847405
227	0x3d2945c9	0.041326318
228	0x3d4d66ee	0.05014699
229	0x3d7b96a1	0.061422948
230	0xbdb70595	-0.089366116
231	0x3d6ae277	0.05734488
232	0x3dd14e45	0.10220007
233	0xbdc038c8	-0.0938583
234	0xbda42fed	-0.080169536
235	0x3e206cfd	0.15666576
236	0xbd87a56e	-0.0662335
237	0xbdcc5ed3	-0.09979024
238	0xbda33c6c	-0.07970509
239	0xbd6ef584	-0.05833961
240	0x3de8951b	0.113565646
241	0xbdab67c6	-0.083694026
242	0x3d903c5c	0.07042763
243	0x3e1087cb	0.14114301
244	0xbe38b0ba	-0.18036166
245	0x3da426aa	0.08015187
246	0x3ce43f9b	0.02786236
247	0xbd973a31	-0.07384146
248	0x3d0f5087	0.034988906
249	0xbde1943b	-0.11014601
250	0x3d83f748	0.064436495
251	0x3cea088e	0.028568532
252	0x3e1d64d4	0.15370494
253	0x3ccb63b9	0.024827825
254	0x3deb6d07	0.11495405
255	0x3d89449a	0.06702538

lstm1_a.weight_hh_l0 f4 [252, 63]
0	0x3c49e785	0.012323265
1	0x3cfde45d	0.030992681
2	0x3d264d7c	0.04060124
3	0xbc0c7c26	-0.008574521
4	0x3d21c18c	0.03949122
5	0xbd1a5ad4	-0.037684277
6	0xbd039009	-0.032119785
7	0x3cfc2cb7	0.03078304
8	0xbdca0eba	-0.0986609
9	0xbbd846fa	-0.006600258
10	0xbd999933	-0.074999236
11	0xbbdb372f	-0.006689928
12	0x3d34c5df	0.044134017
13	0x3c04a793	0.008096593
14	0x3bd12ed8	0.006383758
15	0xbde5b4eb	-0.11216148
16	0x3d9ab4e7	0.07554036
17	0x3da94d1a	0.08266659
18	0x3df83682	0.121197715
19	0xbd173899	-0.03691921
20	0xbbef37a2	-0.007300333
21	0x3a2e984e	0.00066602684
22	0xbcc121e4	-0.02357573
23	0x3c8af28b	0.016961357
24	0x3da1d11e	0.07901214
25	0x3c51c5e8	0.012803532
26	0xbb813d57	-0.00394408
27	0xbb3ed6b1	-0.0029119665
28	0xbd285264	-0.0410942
29	0xbdc93d97	-0.098262005
30	0xbe4048fb	-0.1877784
31	0x3d3da6de	0.046301715
32	0xbe182c96	-0.14860758
33	0x3de8ad72	0.11361207
34	0xbdad5af4	-0.084646136
35	0x3d28d8c8	0.041222364
36	0x3dec785a	0.11546393
37	0x3c603480	0.013684392
38	0xbd93b3e1	-0.072120436
39	0x3de6baee	0.11266123
40	0xbdb379ab	-0.08763441
41	0xbd599345	-0.053118963
42	0x3dfb3e77	0.122677736
43	0x3dc3f2b5	0.09567777
44	0x3e0760e1	0.1322055
45	0xbdecb48c	-0.11557874
46	0x3cfadd04	0.030622967
47	0xbd8902ec	-0.066900104
48	0x3c8ae260	0.016953647
49	0xbac27cf0	-0.001483826
50	0xbdb0e5c8	-0.08637577
51	0x3e332fe3	0.17498736
52	0xbda1b45b	-0.07895728
53	0xbd32a4c5	-0.043614168
54	0x3da36943	0.079790615
55	0x3d2bf396	0.04198035
56	0x3d29559c	0.04134141
57	0x3e1bf69e	0.15230796
58	0x3d0bc412	0.034122534
59	0x3d2dc047	0.042419698
60	0xbe0c5a23	-0.1370626
61	0xbdf66a25	-0.12031964
62	0xbe27647f	-0.1634693
63	0x3ddfd32f	0.10928952
64	0xbd414813	-0.047187876
65	0x3c8656c3	0.016398793
66	0x3d874317	0.06604593
67	0xbdd420d8	-0.10357827
68	0x3d9abd15	0.07555596
69	0xbd865b3c	-0.0656037
70	0x3d3b64d6	0.04575046
71	0xbd86c499	-0.06580467
72	0xbdbb0d5e	-0.09133409
73	0xbc365158	-0.011127792
74	0xbd464bf9	-0.048412297
75	0x3dd9e802	0.10639955
76	0x3da84f16	0.082182094
77	0x3db6fb06	0.08934598
78	0xbe09ec89	-0.13469137
79	0x3c162c2a	0.009165803
80	0xbe0356ee	-0.1282613
81	0xbdd01656	-0.1016051
82	0x3afa7e64	0.0019111154
83	0x3decffce	0.11572228
84	0x3e27c6e9	0.16384472
85	0x3decabaf	0.115561835
86	0xbdd4861e	-0.10377143
87	0xbdac0376	-0.083990976
88	0x3d8a9d16	0.06768243
89	0x3dfe20ad	0.12408576
90	0x3e45034f	0.19239543
91	0x3cf0dd0d	0.02940228
92	0xbdea9a81	-0.114552505
93	0xbe0405da	-0.12892857
94	0x3de80e48	0.11330849
95	0xbdb28db8	-0.08718437
96	0x3d029cf7	0.031887975
97	0x3d9dd4d0	0.077066064
98	0xbcb86f4e	-0.022514012
99	0x3cfe497c	0.0310409
100	0x3d5e8d53	0.054333996
101	0x3c7e3b06	0.015517002
102	0x3db60e38	0.08889431
103	0x3c66600c	0.014060985
104	0x3dd0ef7b	0.10201927
105	0xbdce3a0a	-0.10069664
106	0x3d05483b	0.032539587
107	0xbd096310	-0.03354174
108	0x3b081774	0.0020765932
109	0x3dc27b49	0.09496171
110	0x3c8f82e6	0.017518472
111	0xbdaea19e	-0.0852692
112	0x3d129287	0.03578427
113	0xbd7225b9	-0.059118006
114	0xbd1a7273	-0.037706804
115	0xbd492b61	-0.049113635
116	0xbdb3a127	-0.08770972
117	0xbcd518b6	-0.02601276
118	0x3da27a77	0.079335146
119	0xbd64491a	-0.055733778
120	0x3be229af	0.0069019417
121	0x3d385ad0	0.04500848
122	0xbde75a82	-0.1129656
123	0x3c847545	0.0161692
124	0xbbf32ca8	-0.007421095
125	0xbc0c95e1	-0.008580656
126	0x3e82658c	0.254681
127	0x3e89a834	0.2688614
128	0x3e6e746a	0.23286596
129	0xbe1d61be	-0.15369317
130	0xbd0d90e2	-0.034562
131	0xbe518cc5	-0.20463856
132	0xbdc8f19c	-0.09811708
133	0x3e004047	0.1252452
134	0x3daa8e8e	0.083279714
135	0x3e836717	0.2566459
136	0xbe5cb79a	-0.21554413
137	0xbdd67120	-0.10470796
138	0xbc6ff5eb	-0.014646034
139	0x3d891d00	0.066949844
140	0x3e56e767	0.2098671
141	0xbd7d4ea9	-0.061842594
142	0xbb3efc07	-0.002914192
143	0x3e0ea2ba	0.13929263
144	0xbe4438fd	-0.19162364
145	0xbdefb490	-0.117043614
146	0xbe8b63c2	-0.27224547
147	0x3e0a075d	0.13479371
148	0x3e24e66b	0.16103522
149	0x3dca567c	0.09879777
150	0x3d8f8fff	0.07009887
151	0xbe8318b3	-0.25604782
152	0xbe1ac294	-0.15113288
153	0x3e5478d9	0.20749225
154	0xbe760a58	-0.24027383
155	0xbcec36a3	-0.028834647
156	0xbd987782	-0.07444669
157	0xbe7fa70e	-0.2496607
158	0xbd86e517	-0.06586664
159	0xbdc58abe	-0.096456036
160	0x3e90d6e0	0.28288937
161	0xbe3c56b0	-0.18392444
162	0xbe55a71b	-0.20864527
163	0x3cae358e	0.021265771
164	0x3dcacac8	0.09901959
165	0x3e380fe1	0.17974807
166	0x3e603d51	0.2189839
167	0xbde3bd51	-0.111200936
168	0x3e0f6dd3	0.14006738
169	0xbe027731	-0.1274078
170	0x3d47c6de	0.04877364
171	0x3e3c536a	0.18391195
172	0x3e73618a	0.23767677
173	0xbe6b86ac	-0.23000592
174	0x3e73031c	0.23731655
175	0x3d3f7733	0.046744537
176	0x3e053c8c	0.13011378
177	0xbdc306d1	-0.095227845
178	0x3e5b3407	0.21406566
179	0x3e6c376a	0.23068014
180	0xbe273de4	-0.16332203
181	0xbdb2ac49	-0.08724267
182	0x3da1c6f4	0.078992754
183	0xbd85e01e	-0.065368876
184	0x3df8d03d	0.12149093
185	0x3e44e785	0.19228943
186	0xbe80a5c4	-0.2512647
187	0xbd74a12d	-0.05972402
188	0x3e1870ac	0.14886731
189	0x3d776050	0.060394585
190	0x3b2e16c7	0.002656387
191	0x3dd10f15	0.10207955
192	0xbd2bee6f	-0.041975435
193	0xbc19980b	-0.009374629
194	0xbe3061a9	-0.17224754
195	0xbd0fd478	-0.035114735
196	0x3d82774a	0.06370409
197	0xbdaaf627	-0.08347731
198	0x3d83077b	0.06397911
199	0xbdbfbb11	-0.09361852
200	0xbda8c8da	-0.082414344
201	0xbd230d58	-0.039807647
202	0x3dbb76c1	0.0915351
203	0x3c326180	0.010887504
204	0xbe2531d2	-0.16132286
205	0x3db7490d	0.0894948
206	0x3e35aec5	0.1774245
207	0xbe20b0f8	-0.15692508
208	0xbdce40c8	-0.1007095
209	0xbe3b1496	-0.18269572
210	0x3e0c52e7	0.137035
211	0x3d871e17	0.06597536
212	0x3dad03a0	0.08447957
213	0x3d4a1e70	0.049345434
214	0x368e339d	4.2379384e-06
215	0xbd201642	-0.039083727
216	0x3e101adf	0.1407275
217	0xbe0b5d5b	-0.13609831
218	0x3d656980	0.056008816
219	0xbde33f39	-0.11096043
220	0xbdee54ea	-0.1163729
221	0x3c0261d5	0.007957895
222	0xbe154c52	-0.14579895
223	0x3e370d42	0.17876151
224	0xbd2c1401	-0.042011265
225	0xbd57e9fb	-0.052713376
226	0xbd78d130	-0.06074637
227	0x3e23e3ed	0.16004916
228	0xbc7fbfad	-0.015609664
229	0xbcccd36f	-0.025003163
230	0x3c23f889	0.010007986
231	0x3e3e5daa	0.18590418
232	0x3d243ac9	0.040095124
233	0x3e3432fd	0.17597575
234	0x3d796f0c	0.06089692
235	0x3e40bceb	0.18822066
236	0xbe0f2d22	-0.1398206
237	0x3dd96c6c	0.10616383
238	0x3e32eb7a	0.1747264
239	0xbd4b6c70	-0.04966396
240	0x3d9111a3	0.07083442
241	0x3e1ced38	0.15324867
242	0x3cc47c29	0.023984985
243	0xbd70b481	-0.058765892
244	0xbdfb39d4	-0.12266889
245	0x3e090ced	0.13383837
246	0xbd98ea99	-0.07466621
247	0x3dd2b96d	0.102892734
248	0x3df93c43	0.12169697
249	0xbe12c32e	-0.14332268
250	0xbe171a56	-0.1475614
251	0x3db5bc83	0.088738464
252	0x3de85f76	0.11346333
253	0x3c9b1f9b	0.01893597
254	0xbdbe76f6	-0.09300034
255	0x3d8dbbdf	0.06920599

lstm1_a.bias_ih_l0 f4 [252]
0	0xbd650d63	-0.05592097
1	0xbdcb491d	-0.099260546
2	0x3daf9089	0.0857249
3	0xbd166896	-0.036720835
4	0xbc4e6507	-0.012597329
5	0x3e302c28	0.17204344
6	0xbe0b72c1	-0.13617994
7	0xbd462a2a	-0.048380055
8	0x3d044b3c	0.03229831
9	0x3deecfbc	0.11660716
10	0xbbef5786	-0.007304135
11	0x3dec5863	0.11540296
12	0x3e2650ee	0.1624181
13	0xbd089b1c	-0.03335105
14	0xbd1e1673	-0.038595628
15	0x3e0e1070	0.13873458
16	0xbde45155	-0.11148325
17	0xbccdd0e2	-0.025124017
18	0x3d71dd66	0.059049033
19	0x3e13a0e9	0.14416851
20	0xbd79bd5d	-0.060971607
21	0x3e6813d9	0.22663821
22	0xbd9bcd99	-0.07607574
23	0x3e1258e5	0.14291723
24	0x3d171f92	0.036895342
25	0x3e1bd334	0.15217286
26	0x3ea28b9a	0.31747133
27	0xbcea06e9	-0.028567748
28	0xbd5e655b	-0.05429588
29	0x3dfea09c	0.124329776
30	0x3deae740	0.11469889
31	0xbdf614b5	-0.12015668
32	0x3e11c23d	0.14234252
33	0x3e5f2e9f	0.21795128
34	0x3d2d77e0	0.04235065
35	0x3dd0f32b	0.102026306
36	0x3ca23acf	0.019803433
37	0x3e2ae4c9	0.16688837
38	0xbd1d6eb2	-0.038435645
39	0xbc8c8939	-0.017155277
40	0x3e3dcf96	0.18536219
41	0xbd5562eb	-0.05209629
42	0xbc4678c3	-0.012113753
43	0x3aa9bbe2	0.001294967
44	0xbd1d5a02	-0.038415916
45	0xbd0c7379	-0.03428981
46	0xbdcef4d9	-0.10105295
47	0xbdbf88e8	-0.09352285
48	0x3e0380b9	0.12842073
49	0x3d1efb03	0.038813602
50	0x3db2780e	0.08714305
51	0x3e1f7c47	0.15574752
52	0xbd4011d0	-0.046891987
53	0x3c28bfdf	0.010299652
54	0x3e419ea4	0.18908173
55	0x3c746c54	0.014918406
56	0x3cd66d14	0.02617506
57	0x3dc52c81	0.09627629
58	0xbdae0d8b	-0.08498677
59	0x3d34922f	0.044084724
60	0x3e32f09b	0.17474596
61	0x3db52659	0.08845205
62	0xbd5f7d59	-0.0545629
63	0x3da49b0e	0.08037387
64	0x3cc3929c	0.02387362
65	0xbca8ed3a	-0.020620931
66	0x3b997cf3	0.0046840846
67	0x3d73e578	0.05954501
68	0xbdcb8a73	-0.099385165
69	0xbcc22cb8	-0.023702964
70	0xbbd3224e	-0.0064432984
71	0xbda48ac9	-0.08034284
72	0xbdd246e4	-0.102674276
73	0xbcfc5137	-0.030800445
74	0xbdd7edfe	-0.1054344
75	0xbc119914	-0.008886594
76	0xbd40d044	-0.047073618
77	0x3dd7ab4f	0.105307214
78	0xbdc24436	-0.094856665
79	0xbcdc5a0a	-0.026898403
80	0xbd80be85	-0.06286339
81	0x3d4926e3	0.04910935
82	0x3d88203c	0.06646773
83	0x3d2d5bc7	0.042323854
84	0x3e279371	0.16364838
85	0xbdf70d95	-0.120631374
86	0x3d814a77	0.06313031
87	0x3de05a21	0.10954691
88	0xbda0ea59	-0.07857198
89	0xbd378dc5	-0.044812936
90	0x3e1c7f01	0.15282823
91	0x3c78f763	0.0151957
92	0x3de19d0a	0.11016281
93	0x3e450a41	0.19242193
94	0xbad79732	-0.0016448258
95	0xbd6e8eaa	-0.058241524
96	0xbd8ade8e	-0.0678073
97	0xbd91fb60	-0.07128024
98	0xbd68a581	-0.05679846
99	0xbd5a10a3	-0.053238522
100	0x3dd99601	0.10624314
101	0x3d2d31fa	0.04228399
102	0x3be1ddd9	0.0068929014
103	0x3d8907cd	0.06690941
104	0x3dea6c62	0.11446454
105	0xbcdfc8d6	-0.027317446
106	0x3cab5379	0.020913826
107	0xbe08fccb	-0.13377683
108	0x3d41e6a2	0.04733909
109	0xbdced52f	-0.10099255
110	0x3dc65208	0.09683615
111	0xbda81cbc	-0.08208606
112	0x3ca34aae	0.019933071
113	0x3d882496	0.06647603
114	0xbd6669f6	-0.056253396
115	0x3bec0ebe	0.007203906
116	0xbde59707	-0.11210447
117	0x3c199a65	0.009375189
118	0x3dc2edf2	0.09518041
119	0x3e029637	0.12752615
120	0xbda8563b	-0.08219572
121	0xbd9618ea	-0.07328971
122	0x3bea0a06	0.007142308
123	0x3e0335dc	0.12813514
124	0xbdb90658	-0.09034413
125	0x3db4277a	0.08796592
126	0x3d2750ef	0.04084867
127	0xbdb75c42	-0.08953144
128	0xbe261cd5	-0.16221936
129	0xbc4bd63b	-0.012441213
130	0xbe39a4f6	-0.18129334
131	0x3e0ae034	0.13562089
132	0x3c693ad8	0.014235221
133	0x3e524d2b	0.2053725
134	0xbd97e20e	-0.074161634
135	0x3ddcdb9c	0.10784075
136	0xbdc154ed	-0.094400264
137	0xbe2bf918	-0.1679424
138	0x3dc7f13c	0.09762809
139	0xbda66363	-0.08124425
140	0x3da5bc0e	0.08092509
141	0xbe394a1b	-0.18094675
142	0x3dbce28f	0.092229
143	0x3e09f6c9	0.13473047
144	0xbd9182e1	-0.07105041
145	0xbdea045d	-0.114266135
146	0xbe281997	-0.16416012
147	0x3e0a0261	0.1347747
148	0x3e432de9	0.19060482
149	0x3e6dfbe4	0.2324062
150	0x3d59b1f3	0.05314822
151	0xbe58999d	-0.21152349
152	0xbe9595bf	-0.2921581
153	0x3dc09b0c	0.09404573
154	0x3d6bf67c	0.057608113
155	0x3cd8a285	0.026444683
156	0x3df1d475	0.11808101
157	0x3c59a545	0.013284032
158	0x3e0a5c05	0.13511665
159	0xbe39a87b	-0.18130676
160	0x3cb49dab	0.022047838
161	0x3d12bcf3	0.035824727
162	0xbe84fed0	-0.25975657
163	0x3e2a92f5	0.16657622
164	0xbcaf5e18	-0.021407172
165	0xbe3b5554	-0.18294269
166	0x3d477724	0.048697606
167	0x3da84d91	0.082179196
168	0xbcd0403f	-0.02542126
169	0xbdf258ac	-0.11833319
170	0x3d9192de	0.07108091
171	0xbc8930cb	-0.0167469
172	0xbda3494b	-0.07972964
173	0xbdbb47d8	-0.091445625
174	0x3dd2ce55	0.10293261
175	0x3d962247	0.07330757
176	0x3d26e139	0.040742133
177	0x3dfa7d27	0.12230902
178	0x3dd15eda	0.102231696
179	0x3e019a98	0.12656629
180	0xbe339dbb	-0.17540638
181	0xbbb69779	-0.005572256
182	0x3e525f9b	0.20544283
183	0xbdb31886	-0.08744912
184	0xbe005e38	-0.12535942
185	0xbd5488bd	-0.051888216
186	0xbdf54182	-0.11975385
187	0x3ddb036f	0.10694014
188	0xbe14ea34	-0.14542466
189	0x3af838f0	0.0018937867
190	0xbbbedf5e	-0.0058249673
191	0x3c01c91d	0.007921484
192	0x3d824759	0.06361265
193	0x3d1314d2	0.035908528
194	0xbd491a41	-0.049097303
195	0xbdca883c	-0.09889266
196	0x3e35b861	0.17746116
197	0x3d89d497	0.067300014
198	0x3d84c8ce	0.06483613
199	0xbdbbe176	-0.09173863
200	0x3d8ac989	0.06776721
201	0x3e385067	0.17999421
202	0xbdb16ee1	-0.086637266
203	0x3d803234	0.062595755
204	0x3d35e356	0.044406258
205	0x3e5113bc	0.20417684
206	0xbd2a2aeb	-0.041544836
207	0x3de4700b	0.11154183
208	0x3da30248	0.079594195
209	0x3dbef8c4	0.09324792
210	0x3e6c91f6	0.23102555
211	0x3d6c678c	0.057715937
212	0x3d991861	0.07475353
213	0xbdd45187	-0.103671126
214	0xbd7cdc16	-0.061733328
215	0x3e31c7b3	0.17361335
216	0x3e451ed5	0.19250043
217	0x3c5fc91f	0.013658791
218	0xbc8dfe82	-0.017333273
219	0x3ea6d09b	0.32581028
220	0x3dd73baf	0.105094306
221	0x3dd1c0f6	0.102418825
222	0x3db38cd9	0.08767099
223	0x3e294320	0.16529512
224	0x3d03cf50	0.03218013
225	0x3e56ad14	0.20964462
226	0x3d4b0702	0.04956723
227	0x3db119be	0.08647488
228	0xbd6e8ee3	-0.058241736
229	0x3dc53943	0.096300624
230	0xbbc2c4b2	-0.005943858
231	0x3d9a9c99	0.075494
232	0x3b85911c	0.0040761363
233	0x3e44d961	0.19223548
234	0x3d238750	0.039923966
235	0xbd666c3a	-0.056255557
236	0xbcb042fd	-0.021516318
237	0x3e052ff4	0.13006574
238	0x3df49589	0.11942584
239	0xbdcfa060	-0.10138011
240	0x3e0443a1	0.12916423
241	0xbdaf5de0	-0.08562827
242	0x3d92336c	0.07138714
243	0x3cff27b8	0.031146869
244	0xbd5dd51b	-0.05415831
245	0xbc12ee15	-0.008967896
246	0xb9f0b0ee	-0.0004590819
247	0xbd905837	-0.07048076
248	0x3d35a143	0.044343244
249	0x3e26e0ee	0.16296741
250	0x3cfd49d2	0.03091899
251	0x3e378659	0.17922343

lstm1_a.bias_hh_l0 f4 [252]
0	0x3db487e0	0.088149786
1	0x3d0751fe	0.03303718
2	0x3e4938df	0.19650601
3	0x3e3550b1	0.17706563
4	0x3d81c02a	0.063354805
5	0x3e83a5ed	0.2571253
6	0xbd39ba28	-0.045343548
7	0x3e313f7d	0.17309375
8	0x3e048b42	0.12943748
9	0x3e1df619	0.1542591
10	0x3e0c29fb	0.1368789
11	0x3d96d5fb	0.07365032
12	0x3ce6fa39	0.028195487
13	0xbe04ab61	-0.12956001
14	0x3de76e2a	0.11300309
15	0x3cde2e97	0.027121825
16	0xbcd4623e	-0.025925752
17	0x3e088432	0.13331679
18	0xbd69bafa	-0.05706308
19	0xbc98a84a	-0.018634934
20	0x3c9caec2	0.0191263
21	0x3e372269	0.1788422
22	0x3da85003	0.08218386
23	0x3e572b6d	0.2101266
24	0x3d7df52c	0.062001392
25	0x3e459326	0.19294414
26	0x3ea474d9	0.32120398
27	0x3df9a6d0	0.1219002
28	0x3da96641	0.082714565
29	0x3d0610be	0.03273081
30	0x3e61c702	0.22048572
31	0xbb94a488	-0.004536215
32	0x3e280a33	0.1641014
33	0x3dcdd258	0.100498855
34	0x3e104857	0.14090095
35	0xbd6a00d8	-0.05712971
36	0x3dda930c	0.10672578
37	0x3d5bab20	0.053629994
38	0xbda1f26c	-0.079075664
39	0x3d2ffb1f	0.042964097
40	0xbd0985b6	-0.033574782
41	0x3d37eb57	0.044902172
42	0x3ce5d3cc	0.028055094
43	0x3da40fc1	0.08010817
44	0x3dc3c272	0.09558572
45	0x3d3df096	0.04637202
46	0xbd918cad	-0.0710691
47	0xbdc8004e	-0.09765683
48	0x3e057227	0.13031827
49	0x3e373af9	0.1789359
50	0x3c5725b8	0.013131551
51	0xbc897478	-0.01677917
52	0x3d78df29	0.060759697
53	0xbda59bb5	-0.080863394
54	0x3e7cec60	0.24699545
55	0x3dc94805	0.0982819
56	0x3cd63c46	0.026151787
57	0x3dfbf9d6	0.12303512
58	0x3e01249d	0.12611623
59	0x3d9a9f47	0.07549911
60	0x3cc4560b	0.02396681
61	0x3c8a22cd	0.016862297
62	0x3d9bd27f	0.07608508
63	0xbde51f46	-0.111876056
64	0x3deae4a2	0.114693895
65	0xbded341d	-0.115822054
66	0x3d9c9cb4	0.07647076
67	0x3cbff68c	0.023432992
68	0xbdd6bfdb	-0.10485812
69	0x3d1dae7b	0.038496476
70	0xbe0e3891	-0.13888766
71	0xbdbca63b	-0.092113934
72	0xbdbdf5d2	-0.09275402
73	0x3d2bbf18	0.041930288
74	0xbdc0c4f4	-0.09412566
75	0xbd368b8f	-0.044566687
76	0xbc0e2fa3	-0.00867835
77	0x3b28ae82	0.002573878
78	0xbb51256d	-0.0031913177
79	0xbe02f36e	-0.12788174
80	0x3da9317a	0.0826139
81	0x3da741e5	0.08166865
82	0xbcfc0384	-0.030763395
83	0xbdf20892	-0.11818041
84	0x3e2dba9f	0.16965722
85	0xbcdf59ca	-0.027264494
86	0x3d546945	0.051858205
87	0x3d425102	0.047440536
88	0x3d1488a6	0.03626313
89	0xbdbb341b	-0.09140798
90	0xbd11f475	-0.035633523
91	0xbd639cac	-0.055569336
92	0xbd62218a	-0.055207767
93	0x3d022c2c	0.031780407
94	0xbdc89549	-0.09794099
95	0xbde5c1ed	-0.11218629
96	0xbc903cc8	-0.017607108
97	0x3cae1e3e	0.021254655
98	0x3d89af35	0.06722871
99	0xbc8d2cb0	-0.017233223
100	0x3da1a9d1	0.07893718
101	0x3e1ab547	0.15108214
102	0x3dd7a9bb	0.105304204
103	0xbdac8bd1	-0.08425105
104	0xbd3a4d19	-0.045483682
105	0xbd308499	-0.043095205
106	0xbc32da74	-0.010916341
107	0xbd830e31	-0.06399191
108	0xbd3b25f8	-0.045690507
109	0xbdcd3345	-0.100195445
110	0xbca8d0cb	-0.020607373
111	0x3d2cc377	0.042178597
112	0x3d1b0695	0.037848074
113	0x3c397861	0.0113202045
114	0x3da2dae9	0.0795191
115	0x3d5b08c7	0.053475168
116	0xbde9bff3	-0.114135645
117	0x3d96161d	0.073284365
118	0xbd95bae2	-0.07311036
119	0x3dbe1b23	0.0928252
120	0x3dd05521	0.10172487
121	0x3d6479c7	0.0557802
122	0xbdaff8a8	-0.08592349
123	0xbd41dcb5	-0.047329623
124	0x3cacf226	0.02111156
125	0x3c0c44e2	0.008561345
126	0x3e0dc08d	0.13842984
127	0xbe1a57e0	-0.15072584
128	0xbdf7247b	-0.12067505
129	0xbdb28fe5	-0.08718852
130	0xbe173844	-0.14767557
131	0x3e4619d0	0.19345784
132	0xbdb4f96b	-0.08836635
133	0x3e2eeb64	0.17081982
134	0x3c45f8d2	0.012083249
135	0xbd180b13	-0.037119936
136	0xbd9134cf	-0.070901506
137	0x3d5821d0	0.05276662
138	0x3e08a491	0.13344027
139	0xbd824a1b	-0.06361791
140	0x3dcf4b5e	0.10121797
141	0xbd71422e	-0.058901004
142	0x3dd706a1	0.10499311
143	0xbd19ce0d	-0.03755002
144	0xbb56e5a6	-0.003279069
145	0xbd809c0b	-0.06279763
146	0xbe0e93f1	-0.13923623
147	0xbd214688	-0.039373904
148	0xbc3f2b29	-0.011668005
149	0x3df80efc	0.12112233
150	0xbd319323	-0.04335321
151	0xbd8a8de9	-0.067653485
152	0xbe55a282	-0.20862773
153	0x3dd38262	0.10327603
154	0xbd9906ef	-0.074720256
155	0xbc7b7bb7	-0.01534932
156	0xbca03cc4	-0.019560225
157	0xbd87419a	-0.066043094
158	0x3e888957	0.26667282
159	0xbd709881	-0.05873919
160	0x3e7fc1fc	0.24976343
161	0xbbcfba02	-0.0063393125
162	0xbe8471c8	-0.25868058
163	0x3e557189	0.20844091
164	0xbe1b2d1a	-0.15153924
165	0xbe03921e	-0.12848708
166	0x3ca7ee53	0.020499384
167	0x3c154740	0.009111226
168	0xbd80b3fc	-0.06284329
169	0xbdb0cf5e	-0.08633302
170	0x3e8061f3	0.2507473
171	0xbda91587	-0.08256059
172	0x3da20fc9	0.07913167
173	0xbd4936c6	-0.0491245
174	0x3d902cb1	0.07039774
175	0x3df88bb1	0.12136019
176	0x3d9070f7	0.07052796
177	0x3e2e68a0	0.17032099
178	0x3e29f4c8	0.16597283
179	0x3c8cce5b	0.017188242
180	0xbe87dae7	-0.26534197
181	0xbda9797e	-0.08275126
182	0x3cb67a74	0.022275187
183	0x3db38e9a	0.087674335
184	0xbd4da020	-0.050201535
185	0x3e0adbbd	0.13560386
186	0xbce1d94a	-0.027569432
187	0x3d05af11	0.03263766
188	0xbe16a14c	-0.14709967
189	0x3d6a4d99	0.05720291
190	0x3da5608e	0.08075057
191	0xbd4c1f36	-0.049834453
192	0x3dbf8958	0.09352368
193	0x3db9ab9c	0.09065935
194	0x3df84077	0.12121671
195	0xbd83d8be	-0.06437825
196	0x3e12cb4a	0.14335361
197	0xbd39e04b	-0.045379918
198	0x3de1f49a	0.11032982
199	0xbcacc97e	-0.021092173
200	0xbcb43bb9	-0.022001134
201	0x3d423a8b	0.047419112
202	0xbd0a41cc	-0.033754155
203	0xbc3e9fbb	-0.011634762
204	0x3d97bed8	0.074094474
205	0x3e3913a6	0.18073902
206	0xbccc3312	-0.024926696
207	0x3d36c6c6	0.04462316
208	0x3e759e9f	0.2398629
209	0xbd79881d	-0.060920823
210	0x3d87129c	0.06595346
211	0x3c0af99d	0.008482364
212	0x3e17ec50	0.1483624
213	0x3d016868	0.03159371
214	0xbdd60c16	-0.10451524
215	0x3cd0a307	0.025468362
216	0x3db0b28f	0.08627807
217	0x3c67eac8	0.014155097
218	0x3b08d7e9	0.0020880646
219	0x3e2ad05f	0.1668105
220	0x3cd59ce7	0.026075793
221	0x3d7bd7cb	0.061485093
222	0x3be4f1ab	0.006986817
223	0x3de5422a	0.111942604
224	0x3da3ff65	0.08007697
225	0x3bc06d7d	0.005872427
226	0x3e5df1b9	0.21674241
227	0x3e00d451	0.12580992
228	0x3c339d06	0.01096273
229	0xbd1dd655	-0.03853448
230	0x3dad125f	0.0845077
231	0xbe0b6182	-0.13611415
232	0xbd50bc17	-0.050960626
233	0x3e44bac7	0.19211875
234	0xbd9cd7a5	-0.076583184
235	0x3e029aef	0.12754415
236	0xbdfe7a26	-0.12425642
237	0x3e0bca28	0.13651335
238	0xbc14334a	-0.009045431
239	0x3dde15fe	0.108440384
240	0x3e30ecc1	0.17277814
241	0xbd0d320d	-0.03447156
242	0x3d852a29	0.06502182
243	0x3debb12f	0.115084045
244	0x3d677e69	0.05651704
245	0x3e046424	0.12928826
246	0xbd8de01d	-0.06927512
247	0x3dfee8e0	0.12446761
248	0x3c9e8d99	0.019354628
249	0x3e509b2a	0.2037169
250	0x3c2c0fad	0.010501784
251	0x3cbc0c58	0.022955105

fc2_a.weight f4 [64, 64]
0	0x3d83ab45	0.064291514
1	0x3d9ac5b3	0.075572394
2	0xbd3802e4	-0.04492463
3	0xbdcc97c7	-0.09989887
4	0x3de82e73	0.113369845
5	0xbe1429c1	-0.14469053
6	0xbd72e11b	-0.05929671
7	0xbe0b4907	-0.13602076
8	0xbde2407e	-0.11047457
9	0xbdc2d95f	-0.095141165
10	0x3d359b72	0.044337697
11	0xbaf5923b	-0.0018735597
12	0x3d1525f5	0.03641315
13	0x3dae5584	0.085124046
14	0xbd85e323	-0.065374635
15	0xbd1af11f	-0.037827607
16	0xbd31644b	-0.043308537
17	0xbdf9c578	-0.12195867
18	0xbce6cc78	-0.02817367
19	0x3e0c91e1	0.13727523
20	0x3d333ceb	0.043759268
21	0x3de280d6	0.1105973
22	0xbd812564	-0.0630596
23	0x3d836292	0.06415285
24	0xbd7c7a4b	-0.061640065
25	0xbcb458dc	-0.022015028
26	0xbd15e627	-0.036596444
27	0x3e20d666	0.15706787
28	0x3d91420d	0.07092676
29	0xbd9fa90e	-0.077959165
30	0xbe3682d9	-0.17823352
31	0xbbdc0a1a	-0.0067150714
32	0xbe0403ea	-0.12892118
33	0xbd0dce9e	-0.034620874
34	0xbe05d496	-0.13069376
35	0xbca1d234	-0.019753553
36	0xbda95446	-0.08268027
37	0x3d5a8079	0.053345177
38	0x3d35719d	0.044297803
39	0x3dc15dea	0.09441741
40	0x3cb41cb1	0.021986337
41	0xbd828b11	-0.06374181
42	0xbd122b31	-0.03568572
43	0xbd12145a	-0.03566394
44	0x3de15a56	0.11003558
45	0xbb4cb3af	-0.003123503
46	0x3df55c74	0.11980525
47	0x3d1c0f8a	0.038100757
48	0xbdcbc6fc	-0.09950063
49	0xbd674729	-0.056464348
50	0x3d6ab15a	0.057298042
51	0x3dd9cff1	0.10635365
52	0xbc4e8a5e	-0.0126062315
53	0xbdf43901	-0.11924935
54	0x3d255cf7	0.04037186
55	0xb93c1ab4	-0.00017939025
56	0xba82a87a	-0.0009968423
57	0x3d3b3273	0.04570241
58	0x3dda89d2	0.106708184
59	0x3d4f1c6e	0.050564222
60	0xbdb00fd3	-0.08596768
61	0xbcbe11e8	-0.023201898
62	0xbe095f17	-0.1341518
63	0xbe6d85aa	-0.2319552
64	0xbc4c83e4	-0.012482617
65	0x3dd063b0	0.10175264
66	0x3e11eed0	0.14251256
67	0xbd8fdbeb	-0.07024368
68	0x3d1bcfb2	0.03803987
69	0x3d384d55	0.044995625
70	0xbb4fb9a9	-0.0031696355
71	0x3d04e9c2	0.03244949
72	0xbdcad5ec	-0.099040836
73	0x3d2600a0	0.04052794
74	0x3c88a976	0.016682368
75	0x3d79ee2d	0.061018158
76	0x3b9db29d	0.004812552
77	0x3d445566	0.047933005
78	0xbd3be594	-0.04587324
79	0xbdeff96b	-0.117174946
80	0xbce30d83	-0.027716404
81	0xbdc418b3	-0.095750235
82	0x3db59a76	0.08867352
83	0x3e133c84	0.14378554
84	0x3c2ac3c9	0.010422655
85	0xbb2eb8b0	-0.0026660375
86	0x3bdb3441	0.0066895788
87	0xbddc9b70	-0.10771835
88	0xbda4d4fa	-0.080484346
89	0xbd83a324	-0.06427601
90	0x3e0d29ae	0.13785431
91	0x3d101a9f	0.035181638
92	0xbd8e2520	-0.06940675
93	0xbdb61f5f	-0.08892702
94	0xbdf13aa2	-0.117787614
95	0x3ce3f606	0.027827274
96	0xbdc6f8d3	-0.09715428
97	0x3d91a385	0.07111267
98	0xbdaec09f	-0.08532833
99	0xbd216107	-0.039399173
100	0xbbab98e0	-0.00523673
101	0x3cd81f39	0.026382076
102	0x3d5d76bb	0.05406831
103	0x3d43b383	0.047778618
104	0x3d44f1dc	0.048082218
105	0xbdce4aeb	-0.10072883
106	0x3da645a9	0.08118755
107	0x3ce90c26	0.028448176
108	0x3d17d30d	0.037066508
109	0x3db799c2	0.08964874
110	0xbdc0ee3b	-0.09420439
111	0x3deca2ed	0.11554513
112	0xbcec684e	-0.02885833
113	0x3d957d55	0.07299296
114	0xbd8d73b9	-0.06906838
115	0xbc4acc6c	-0.01237784
116	0x3d301363	0.04298724
117	0xbd16ae11	-0.036787096
118	0x3d7b93d0	0.06142026
119	0xbd72701c	-0.059188947
120	0x3d7300c7	0.059326913
121	0x3d0b6ba9	0.03403822
122	0x3e018429	0.12648071
123	0x3b8bfb02	0.004271866
124	0x3d7175a3	0.058950078
125	0x3d1786e9	0.036993895
126	0xbe38e996	-0.18057856
127	0xbd8309e5	-0.063983716
128	0xbc1d2275	-0.009590735
129	0xbdbcc11c	-0.0921652
130	0xbe4767e9	-0.19473232
131	0xbd647919	-0.05577955
132	0xbe119c93	-0.14219885
133	0x3e247fbe	0.16064355
134	0x3d23e85f	0.04001653
135	0x3e14addf	0.14519452
136	0x3db869c5	0.09004549
137	0xbddc8114	-0.10766807
138	0x3db5c198	0.08874816
139	0xbdb4be2d	-0.08825336
140	0xbd757bfe	-0.0599327
141	0xbdc444fe	-0.09583472
142	0x3dddfb72	0.10838975
143	0xbde5534f	-0.111975305
144	0x3d7ef9ec	0.062250063
145	0x3baba20f	0.0052378247
146	0x3b58a9bc	0.0033060154
147	0xbe004602	-0.12526706
148	0xbc2032bc	-0.009777721
149	0x3ce8a1e0	0.0283975
150	0xbd9b2392	-0.07575144
151	0x3e101f64	0.14074475
152	0xbbbe90e6	-0.005815613
153	0xbd418876	-0.04724928
154	0x3d5c17ca	0.053733625
155	0x3db94414	0.09046188
156	0x3daa9bf2	0.083305255
157	0x3d245bc0	0.040126562
158	0x3d7a5fcc	0.061126515
159	0x3d2c5a52	0.042078324
160	0x3d74253e	0.05960583
161	0xbe332dc3	-0.17497925
162	0xbdb1a7fe	-0.0867462
163	0x3dbd47b0	0.09242189
164	0xbdb85e45	-0.090023555
165	0x3e333063	0.17498927
166	0xbb3db9eb	-0.0028949927
167	0x3d00875b	0.031379085
168	0x3d3e89e7	0.046518233
169	0xbd6c18a3	-0.057640683
170	0x3c9a9ee3	0.018874591
171	0xbd29274b	-0.04129724
172	0xbb329ca1	-0.0027254003
173	0x3e1a038a	0.15040413
174	0xbdab2723	-0.08357074
175	0xbdbc4703	-0.09193232
176	0x3dad07f9	0.08448786
177	0x3c9fb3f4	0.019494988
178	0xba3d04ec	-0.0007210511
179	0x3e146b21	0.14493991
180	0x3bdcd419	0.006739151
181	0xbd17b256	-0.03703531
182	0xbd9cac31	-0.076500304
183	0x3d8e2e25	0.06942395
184	0xbd51a60d	-0.05118375
185	0x3c88fb18	0.016721293
186	0xbde8a83c	-0.11360213
187	0xbd02afbd	-0.03190588
188	0xbd91f8a7	-0.07127505
189	0xbd01319c	-0.03154145
190	0x3df4dbc4	0.119559795
191	0x3d1b1eda	0.03787122
192	0x3deedd9c	0.116633624
193	0x3d43cd85	0.04780342
194	0xbe3abc0c	-0.18235797
195	0xbbdf8624	-0.0068214107
196	0x3c086a8d	0.008326185
197	0x3e1bab7a	0.15202132
198	0xbdf51558	-0.119669616
199	0x3dfe4776	0.12415974
200	0x3d99a7af	0.07502686
201	0xbd0aef30	-0.033919513
202	0xbd06f902	-0.032952316
203	0xbe523a06	-0.20529947
204	0x3e6214bf	0.22078227
205	0xbd94d442	-0.072670475
206	0xba88ea5a	-0.0010445819
207	0xbe47eb86	-0.19523439
208	0x3ca53a33	0.020169353
209	0x3d70cfd7	0.05879196
210	0x3cb99978	0.022656187
211	0xbbcf3671	-0.0063236286
212	0xbd7510d5	-0.059830505
213	0x3e4ad879	0.1980914
214	0xbab8439e	-0.0014058237
215	0x3e392b9e	0.18083045
216	0xbdf0c7e1	-0.11756874
217	0xbd110aec	-0.035410807
218	0xbe52defd	-0.20592876
219	0x3e665cd3	0.22496347
220	0xbca88bff	-0.020574568
221	0x3d6c4a56	0.05768808
222	0x3ddedf00	0.108823776
223	0x3d559272	0.052141614
224	0x3e05d658	0.13070047
225	0xbe1b9fb6	-0.15197644
226	0x3dbe8691	0.0930301
227	0x3da0c81e	0.07850669
228	0xbe664055	-0.22485478
229	0x3e352a08	0.17691815
230	0xbd4dfac7	-0.050287988
231	0xbdd82f96	-0.10555951
232	0x3de85bf3	0.11345663
233	0xbd531172	-0.05153031
234	0x3a16da95	0.0005754617
235	0x3c811043	0.015754825
236	0xbd18e17e	-0.03732442
237	0xbd89b4d3	-0.067239426
238	0xbd960988	-0.07326037
239	0x3cb86fab	0.022514185
240	0x3d91314b	0.0708948
241	0x3d7b7219	0.06138811
242	0x3e33bd5b	0.17552702
243	0x3e23b493	0.15986852
244	0x3e14ae7a	0.14519683
245	0x3de0c921	0.10975862
246	0xba20e669	-0.00061378494
247	0xbdf68152	-0.12036385
248	0x3dc37b98	0.09545058
249	0xbcf8c592	-0.030367646
250	0xbd920390	-0.07129586
251	0x3e14fd3b	0.14549725
252	0xbe49ce84	-0.19707686
253	0x3d2809f5	0.04102512
254	0x3c515920	0.012777597
255	0xbd9638ff	-0.0733509

fc2_a.bias f4 [64]
0	0xbdbc34ff	-0.09189796
1	0xbdfc2718	-0.12312144
2	0x3cc85c81	0.024458172
3	0x3e314bfe	0.17314145
4	0xbd7a4da3	-0.061109196
5	0x3cfdcdc5	0.030981908
6	0xbd7ee755	-0.062232334
7	0x3cf78d78	0.030218825
8	0x3c560e71	0.013064967
9	0x3dce2d67	0.100672536
10	0x3c9802c6	0.01855601
11	0x3dc8b18b	0.09799489
12	0x3c7b32b8	0.0153319165
13	0x3e22da3b	0.15903561
14	0xbd5ce7d9	-0.053932045
15	0x3df21953	0.118212365
16	0x3e1ce952	0.1532338
17	0xbe3c9683	-0.1841679
18	0xbdc76272	-0.09735574
19	0xbe3c53ed	-0.1839139
20	0xbde4cbb8	-0.11171669
21	0xbd2608b7	-0.040535655
22	0xbe84c2e0	-0.25929928
23	0x3e1d2e3e	0.15349671
24	0xbe0af24d	-0.13568993
25	0xbdb9ed29	-0.09078438
26	0xbe82cbdb	-0.25546154
27	0x3e7d13f5	0.24714644
28	0xbdb7b53a	-0.08970113
29	0x3cabe35b	0.020982435
30	0x3daa610b	0.08319291
31	0x3d4a6522	0.049412854
32	0x3e686edd	0.22698541
33	0xbdfcda74	-0.12346354
34	0x3d98095d	0.07423661
35	0xbe198ba3	-0.14994673
36	0xbe626346	-0.22108182
37	0x3b39545b	0.002827904
38	0xbe280e75	-0.16411765
39	0x3cd03b02	0.025418762
40	0xbe887ba0	-0.26656818
41	0xbe0ec03e	-0.13940522
42	0xbd62b8aa	-0.05535189
43	0xbe3ada5f	-0.18247364
44	0x3b87c00e	0.0041427677
45	0x3dfd90ed	0.12381158
46	0x3dc59563	0.09647634
47	0x3ca965a4	0.020678349
48	0xbdaeddd0	-0.08538401
49	0x3da398a3	0.079880975
50	0x3db35f18	0.08758372
51	0x3cce07bc	0.025150172
52	0xbe451fdb	-0.19250433
53	0xbdc459b8	-0.09587425
54	0xbe55b0df	-0.20868252
55	0x3d9d73a8	0.07688075
56	0xbd32d714	-0.043662146
57	0x3e104919	0.14090385
58	0x3da0310e	0.078218564
59	0x3d406938	0.046975344
60	0xbd4f785c	-0.050651893
61	0x3dffa0b3	0.12481823
62	0xbca3745b	-0.019952944
63	0x3c0ca290	0.00858368

fc3_a.weight f4 [2, 64]
0	0xbe37762e	-0.17916176
1	0xbe1e2400	-0.1544342
2	0x3e6c894b	0.23099248
3	0x3e8d3c10	0.27584887
4	0xbe2e649a	-0.17030564
5	0xbda52d0d	-0.080652334
6	0xbd09f934	-0.033684924
7	0xbd133dd3	-0.035947632
8	0x3e019359	0.12653865
9	0x3e83ed3d	0.25766936
10	0xbe2da0d4	-0.16955882
11	0xbd92d334	-0.0716919
12	0xbde2aef8	-0.11068529
13	0x3e87f1f7	0.26551792
14	0xbda31ecb	-0.07964858
15	0x3e086e50	0.13323331
16	0x3e8f474c	0.27984083
17	0xbe77e143	-0.24207024
18	0xbe364c7c	-0.17802614
19	0xbe779f6a	-0.24181905
20	0xbdc66fba	-0.09689279
21	0xbcec4c6e	-0.028845038
22	0xbe6fc7df	-0.23416089
23	0x3e485a9a	0.19565812
24	0xbe81eb03	-0.25374612
25	0xbdd976cd	-0.106183626
26	0xbe7d2b7e	-0.24723622
27	0x3e95fd74	0.29294932
28	0xbe1c9e71	-0.15294816
29	0x3d764a10	0.060129225
30	0x3e7d2543	0.24721245
31	0xbdfc738d	-0.12326727
32	0x3e44af94	0.19207603
33	0xbe7a734f	-0.24458049
34	0x3d2f8a25	0.042856354
35	0xbe31db20	-0.17368746
36	0xbe8828d8	-0.2659366
37	0xbdf84804	-0.12123111
38	0xbe98e464	-0.29861748
39	0x3e7587e4	0.2397762
40	0xbe8df7bf	-0.27728078
41	0xbe811843	-0.25213823
42	0xbe46edb9	-0.19426621
43	0xbe6f2c2f	-0.23356698
44	0x3e5bd112	0.21466473
45	0x3e3088ab	0.17239635
46	0x3ddd0fcb	0.10794028
47	0xbc4ae192	-0.012382882
48	0xbe077127	-0.13226758
49	0x3dc5d9f7	0.09660714
50	0x3daff069	0.085907765
51	0x3e614baf	0.22001527
52	0xbe7050e4	-0.23468357
53	0xbc3b09cb	-0.011415909
54	0xbe2bae34	-0.16765672
55	0x3e54f022	0.20794728
56	0xbe8c8a52	-0.2744928
57	0x3e952c14	0.2913519
58	0x3e90dd3d	0.2829379
59	0xbe25627d	-0.16150852
60	0x3dc0c4ff	0.09412574
61	0x3e2d874a	0.1694614
62	0xbd97085d	-0.07374642
63	0x3e1b6811	0.15176417
64	0xbe8bd560	-0.2731123
65	0xbd865d42	-0.06560756
66	0x3da3978f	0.07987892
67	0xbc49f9e2	-0.012327643
68	0x3e495b60	0.19663763
69	0xbcbea228	-0.023270682
70	0x3e58a1a1	0.21155407
71	0x3e3c8ca2	0.18413022
72	0xbea3bf56	-0.31981915
73	0x3d9b16ed	0.07572732
74	0x3d3ca2f4	0.04605384
75	0xbe4f436f	-0.20240568
76	0xbe0aa899	-0.13540877
77	0xbe70d8b8	-0.23520172
78	0xbe86957e	-0.26285928
79	0x3e8403a6	0.25784034
80	0x3d90b752	0.070662156
81	0x3e0c36c3	0.13692765
82	0x3e3b503a	0.18292323
83	0xbdd7cd36	-0.10537188
84	0xbd15e214	-0.036592558
85	0x3e7740bb	0.24145786
86	0x3be671da	0.007032615
87	0xbdf1d73a	-0.11808629
88	0xbd50d1f6	-0.050981484
89	0xbe784f5a	-0.2424902
90	0xbb8f587d	-0.0043745623
91	0x3ce25b73	0.027631497
92	0xbd97a4de	-0.07404493
93	0xbe883ab4	-0.26607287
94	0x3c2eb5b1	0.010663436
95	0x3e62563f	0.22103213
96	0xbbe76e90	-0.0070627406
97	0x3ca6df4f	0.020370154
98	0x3e799b4c	0.24375647
99	0xbe6fbc38	-0.23411644
100	0x3d840e4b	0.06448039
101	0x3e9f8288	0.31154275
102	0xbd27f88d	-0.04100852
103	0xbe1eca7d	-0.1550693
104	0x3c0babd6	0.008524856
105	0x3ab260cb	0.0013609169
106	0x3e409954	0.1880849
107	0x3d64abf0	0.055828035
108	0x3d9302ac	0.07178244
109	0xbda77f6d	-0.081786014
110	0x3e89c0ee	0.26905006
111	0x3e8694bc	0.2628535
112	0xbe894ce7	-0.26816484
113	0x3e94671f	0.28984925
114	0x3e9356d2	0.28777176
115	0xbe43bec5	-0.19115742
116	0x3d436387	0.04770234
117	0xbe04eba4	-0.12980515
118	0xbd42f954	-0.04760106
119	0x3db50621	0.088390596
120	0x3d69806b	0.057007235
121	0xbe2d34a0	-0.16914606
122	0xbd15c020	-0.036560178
123	0x3e283bf9	0.16429128
124	0xbe327837	-0.17428671
125	0xbdeb0ab9	-0.114766546
126	0xbe095e0c	-0.13414782
127	0xbdd36a48	-0.10323006

fc3_a.bias f4 [2]
0	0x3e6e52ba	0.23273745
1	0x3de71e4c	0.112850755

lstm1_c.weight_ih_l0 f4 [252, 3]
0	0x3e2dadff	0.16960905
1	0xbe43511c	-0.1907391
2	0x3ddc56b9	0.107587285
3	0x3cf8ce7c	0.030371897
4	0x3c633639	0.013867908
5	0xbe1e4b6c	-0.15458459
6	0xbddc14c8	-0.10746151
7	0x3d5cf939	0.053948615
8	0xbd6be61c	-0.057592496
9	0xbd76a9e0	-0.0602206
10	0xbdc55a45	-0.09636358
11	0xbc5cf044	-0.013485018
12	0xbe04941b	-0.12947123
13	0xbd5b181a	-0.053489782
14	0xbda3b6cd	-0.07993851
15	0x3ab19597	0.001354861
16	0x3d05c644	0.032659784
17	0x3e074a32	0.13211897
18	0xbcba974d	-0.022777224
19	0x3cd4e4e9	0.02598806
20	0xbd3c2f59	-0.04594359
21	0xbe19f5d2	-0.1503518
22	0xbb40d29e	-0.0029422413
23	0xbc7a544c	-0.015278887
24	0xbd36c006	-0.04461672
25	0x3db7e271	0.08978737
26	0x3d472588	0.048619777
27	0xbd7c8ae7	-0.061655905
28	0x3d0ad129	0.033890877
29	0xbe04b4d3	-0.12959604
30	0xbd6787a5	-0.056525845
31	0xbd021633	-0.031759452
32	0xbd7ecf3b	-0.06220935
33	0xbd53fc76	-0.051754437
34	0xbd71d772	-0.059043355
35	0x3d0a44cb	0.033757012
36	0x3dee1a29	0.116260834
37	0x3d896622	0.067089334
38	0x3c883c9d	0.016630465
39	0xbcf1b961	-0.02950734
40	0xbe050a5a	-0.1299223
41	0xbdc44045	-0.09582571
42	0xbe408f18	-0.18804586
43	0x3c7eb614	0.0155463405
44	0xbe357d08	-0.17723477
45	0x3daa5915	0.08317772
46	0x3c5e7d4b	0.013579677
47	0xbcae7cbb	-0.02129971
48	0xbd6c22d2	-0.057650395
49	0xbe736797	-0.23769985
50	0xbd49a8e5	-0.049233336
51	0x3c7bd964	0.015371654
52	0xbeb8ce4d	-0.36094895
53	0xbcfe2a4b	-0.031026026
54	0x3be1a36f	0.006885938
55	0xbec47d5a	-0.38376886
56	0xbd1813e1	-0.037128333
57	0xbba6720e	-0.0050795143
58	0xbe77e22e	-0.24207374
59	0xbdbc867e	-0.0920534
60	0xbd953eb2	-0.07287349
61	0xbda4a299	-0.080388255
62	0xbd38d57e	-0.045125477
63	0xbdaf84d1	-0.085702546
64	0x3e95d79e	0.29266065
65	0xbe007fc3	-0.12548737
66	0xbbe6f9f2	-0.007048839
67	0x3cf4c7ee	0.02988049
68	0xbe5691a8	-0.20954001
69	0x3bd39355	0.0064567723
70	0xba1fa675	-0.00060901727
71	0x3db05622	0.086101785
72	0x3dbc1191	0.09183038
73	0x3c47223e	0.01215416
74	0xbe1debda	-0.15422001
75	0x3e4935fb	0.19649498
76	0xbc9c8603	-0.01910687
77	0x3d609e36	0.05483838
78	0xbe229a76	-0.15879235
79	0x3c90dcc5	0.017683396
80	0xbde58314	-0.11206642
81	0xbe42817f	-0.18994711
82	0x3c880b8e	0.016607072
83	0xbd2ee1ba	-0.04269574
84	0x3e1b6348	0.15174592
85	0x3db818f8	0.089891374
86	0x3e5628ef	0.20914052
87	0x3da1a52a	0.07892831
88	0xbed31e62	-0.41234118
89	0x3dd0ef3b	0.102018796
90	0x3c8a37e4	0.016872354
91	0xbe0749ee	-0.13211796
92	0xbe26a449	-0.16273607
93	0xbbd97215	-0.006635914
94	0xbd8ac639	-0.06776089
95	0x3bdf6fd1	0.0068187495
96	0x3dc6d6fd	0.097089745
97	0xbd8dc1c7	-0.06921726
98	0x3de47895	0.11155812
99	0x3bb2c542	0.005455644
100	0x3ed12c6c	0.40854204
101	0x3d60956b	0.054829996
102	0x3ce1a69c	0.027545266
103	0x3d32c05e	0.043640487
104	0xbdb876fc	-0.090070695
105	0x3dc13457	0.09433811
106	0xbe079d1f	-0.1324353
107	0xbdf53412	-0.11972822
108	0x3e082162	0.13293985
109	0x3e9e4531	0.30912164
110	0x3d46bb11	0.048518244
111	0x3e182ffa	0.14862052
112	0xbda7f70f	-0.082014196
113	0x3cb9dd18	0.022688434
114	0x3e18ee83	0.14934735
115	0xbbc72ae7	-0.0060781124
116	0x3e0a5589	0.13509192
117	0x3d7ee80d	0.06223302
118	0xbd62462f	-0.055242714
119	0xbddac2bf	-0.10681676
120	0xbd28a016	-0.041168295
121	0x3e2e8bfb	0.17045586
122	0x3d58a232	0.052889057
123	0xbdb9082a	-0.0903476
124	0xbd1dde98	-0.03854236
125	0xbd032f38	-0.032027453
126	0x3d2b4be6	0.04182043
127	0x3cea3ee7	0.028594447
128	0x3d4a09bf	0.0493257
129	0xbdbcd031	-0.09219397
130	0xbd3a9ad2	-0.045557804
131	0xbc5255a3	-0.0128378
132	0x3d4ff326	0.050768994
133	0x3ceb0d65	0.02869291
134	0x3e30dcb3	0.1727169
135	0x3e075a19	0.13217963
136	0x3d82914a	0.06375368
137	0xbc15c2e6	-0.009140706
138	0xbab76ced	-0.0013994254
139	0x3cd6db96	0.026227754
140	0xbced8238	-0.028992757
141	0xbd0b7f42	-0.03405691
142	0x3de2ebeb	0.11080154
143	0x3c8f6665	0.01750488
144	0xbcd393e5	-0.025827358
145	0xb9984a47	-0.0002904704
146	0x3d144623	0.0361997
147	0xbcfa3d5e	-0.03054684
148	0x3d1d7210	0.038438857
149	0xbc802b58	-0.015645668
150	0x3e11d668	0.14241946
151	0xbc634bdd	-0.013873068
152	0x3e3d6fd3	0.18499689
153	0x3ceae36f	0.028672902
154	0x3cf1341d	0.029443795
155	0xbd8e8d44	-0.06960538
156	0xbe13ae43	-0.14421944
157	0xbb6b69fe	-0.003592133
158	0xbe20ea08	-0.15714276
159	0xbbc2f456	-0.0059495373
160	0xbd72f3f0	-0.05931467
161	0x3d2a4771	0.041572038
162	0x3d792089	0.060822044
163	0x3d97266a	0.07380374
164	0x3e3ab5c1	0.18233396
165	0xbd512354	-0.051059082
166	0x3d193935	0.037408073
167	0xbd24acd4	-0.040203884
168	0x3cf93cc0	0.030424476
169	0x3df00dbd	0.1172137
170	0x3c0c980d	0.008581174
171	0x3d9e02aa	0.07715352
172	0xbdc3d3e8	-0.09561902
173	0xbdb60be7	-0.08888989
174	0xbdaba689	-0.083813734
175	0x3d933a6d	0.07188878
176	0xbda468af	-0.08027779
177	0xbc896072	-0.016769622
178	0xbdd88c5d	-0.10573647
179	0x3d0a9e5b	0.033842426
180	0x3cb9c0b8	0.022674903
181	0x3dd0f745	0.10203413
182	0x3e6fc902	0.23416522
183	0x3a8ab2a1	0.00105818
184	0x3ebee45d	0.37283602
185	0x3d55a0ba	0.052155234
186	0x3d434db7	0.047681537
187	0x3be47c51	0.0069728275
188	0xbe2d6e5f	-0.16936634
189	0x3cd01e2e	0.025405016
190	0xbd0e1f93	-0.03469808
191	0xbd26c763	-0.040717494
192	0x3de4e424	0.11176327
193	0xbe05bd4a	-0.1306049
194	0xbe02fd63	-0.12791972
195	0xbde95b03	-0.11394312
196	0xbc32e257	-0.010918221
197	0x3d82b187	0.06381517
198	0xbd1475f6	-0.03624531
199	0xbd2f5713	-0.04280765
200	0x3d2e4dce	0.04255467
201	0xbd9b0536	-0.07569353
202	0x3d27b1ba	0.040940978
203	0xbc38ffa9	-0.011291423
204	0x3d98e830	0.07466161
205	0x3d26971e	0.04067146
206	0x3c6b07b1	0.0143450955
207	0x3d54abfe	0.051921837
208	0x3da0275a	0.07820006
209	0x3d524f38	0.05134508
210	0x3e0909d0	0.1338265
211	0x3d4ca135	0.049958427
212	0xbd410ae3	-0.047129523
213	0xbda505db	-0.080577575
214	0xbce8317c	-0.028343908
215	0x3cb26bf0	0.021779984
216	0x3dbd4cbc	0.092431515
217	0x3d86a38d	0.065741636
218	0xbd024033	-0.031799506
219	0x3d9c76d2	0.07639851
220	0xbdd54378	-0.10413259
221	0xbd493e1e	-0.049131505
222	0x3da8474b	0.08216723
223	0x3d9a05f9	0.075206704
224	0x3dc226ec	0.0948008
225	0xbdda3055	-0.1065375
226	0xbd9c87e4	-0.076431066
227	0x3d329d80	0.043607235
228	0xbc58c993	-0.013231653
229	0xbde42acf	-0.111409776
230	0xbdae86cb	-0.085218035
231	0x3d921bdb	0.07134219
232	0x3cc73545	0.024317393
233	0x3dbd9542	0.09256984
234	0x3dc994fa	0.09842868
235	0xbd4d70db	-0.050156455
236	0x3d98dbfd	0.074638344
237	0x3d289db3	0.04116602
238	0x3c719379	0.014744633
239	0xbdbc0df3	-0.09182348
240	0x3d9d85eb	0.076915585
241	0x3e3ef5e3	0.18648486
242	0xbdd294d1	-0.10282291
243	0xbc8267b5	-0.015918592
244	0x3d66f2d6	0.05638393
245	0x3d52a2e7	0.051424887
246	0xbcf90f9d	-0.030402953
247	0xbe0d2ff9	-0.13787831
248	0x3d5766a0	0.052588105
249	0x3d4b0470	0.04956478
250	0x3df4383a	0.11924787
251	0xbd34c37a	-0.044131733
252	0x3c924160	0.017853439
253	0xbc50d787	-0.012746698
254	0x3e24a14a	0.16077152
255	0x3ccb98b1	0.024853082
